<?xml version="1.0"?>
<net name="torch_jit" version="11">
	<layers>
		<layer id="2" name="latent_model_input" type="Parameter" version="opset1">
			<data shape="2,4,64,64" element_type="f32" />
			<rt_info>
				<attribute name="old_api_map_element_type" version="0" value="f16" />
			</rt_info>
			<output>
				<port id="0" precision="FP32" names="latent_model_input">
					<dim>2</dim>
					<dim>4</dim>
					<dim>64</dim>
					<dim>64</dim>
				</port>
			</output>
		</layer>
		<layer id="1" name="t" type="Parameter" version="opset1">
			<data shape="" element_type="f64" />
			<rt_info>
				<attribute name="old_api_map_element_type" version="0" value="f16" />
			</rt_info>
			<output>
				<port id="0" precision="FP64" names="t" />
			</output>
		</layer>
		<layer id="0" name="encoder_hidden_states" type="Parameter" version="opset1">
			<data shape="2,77,768" element_type="f32" />
			<rt_info>
				<attribute name="old_api_map_element_type" version="0" value="f16" />
			</rt_info>
			<output>
				<port id="0" precision="FP32" names="encoder_hidden_states">
					<dim>2</dim>
					<dim>77</dim>
					<dim>768</dim>
				</port>
			</output>
		</layer>
		<layer id="3" name="Constant_87208_compressed" type="Const" version="opset1">
			<data element_type="f16" shape="1, 1, 320" offset="0" size="640" />
			<output>
				<port id="0" precision="FP16">
					<dim>1</dim>
					<dim>1</dim>
					<dim>320</dim>
				</port>
			</output>
		</layer>
		<layer id="4" name="Constant_87208" type="Convert" version="opset1">
			<data destination_type="f32" />
			<rt_info>
				<attribute name="decompression" version="0" />
			</rt_info>
			<input>
				<port id="0" precision="FP16">
					<dim>1</dim>
					<dim>1</dim>
					<dim>320</dim>
				</port>
			</input>
			<output>
				<port id="1" precision="FP32">
					<dim>1</dim>
					<dim>1</dim>
					<dim>320</dim>
				</port>
			</output>
		</layer>
		<layer id="5" name="Constant_87207_compressed" type="Const" version="opset1">
			<data element_type="f16" shape="1, 1, 2560" offset="640" size="5120" />
			<output>
				<port id="0" precision="FP16">
					<dim>1</dim>
					<dim>1</dim>
					<dim>2560</dim>
				</port>
			</output>
		</layer>
		<layer id="6" name="Constant_87207" type="Convert" version="opset1">
			<data destination_type="f32" />
			<rt_info>
				<attribute name="decompression" version="0" />
			</rt_info>
			<input>
				<port id="0" precision="FP16">
					<dim>1</dim>
					<dim>1</dim>
					<dim>2560</dim>
				</port>
			</input>
			<output>
				<port id="1" precision="FP32">
					<dim>1</dim>
					<dim>1</dim>
					<dim>2560</dim>
				</port>
			</output>
		</layer>
		<layer id="7" name="Constant_87204_compressed" type="Const" version="opset1">
			<data element_type="f16" shape="1, 1, 320" offset="5760" size="640" />
			<output>
				<port id="0" precision="FP16">
					<dim>1</dim>
					<dim>1</dim>
					<dim>320</dim>
				</port>
			</output>
		</layer>
		<layer id="8" name="Constant_87204" type="Convert" version="opset1">
			<data destination_type="f32" />
			<rt_info>
				<attribute name="decompression" version="0" />
			</rt_info>
			<input>
				<port id="0" precision="FP16">
					<dim>1</dim>
					<dim>1</dim>
					<dim>320</dim>
				</port>
			</input>
			<output>
				<port id="1" precision="FP32">
					<dim>1</dim>
					<dim>1</dim>
					<dim>320</dim>
				</port>
			</output>
		</layer>
		<layer id="9" name="Constant_87200_compressed" type="Const" version="opset1">
			<data element_type="f16" shape="1, 1, 320" offset="6400" size="640" />
			<output>
				<port id="0" precision="FP16">
					<dim>1</dim>
					<dim>1</dim>
					<dim>320</dim>
				</port>
			</output>
		</layer>
		<layer id="10" name="Constant_87200" type="Convert" version="opset1">
			<data destination_type="f32" />
			<rt_info>
				<attribute name="decompression" version="0" />
			</rt_info>
			<input>
				<port id="0" precision="FP16">
					<dim>1</dim>
					<dim>1</dim>
					<dim>320</dim>
				</port>
			</input>
			<output>
				<port id="1" precision="FP32">
					<dim>1</dim>
					<dim>1</dim>
					<dim>320</dim>
				</port>
			</output>
		</layer>
		<layer id="11" name="Constant_87189_compressed" type="Const" version="opset1">
			<data element_type="f16" shape="1, 1, 320" offset="7040" size="640" />
			<output>
				<port id="0" precision="FP16">
					<dim>1</dim>
					<dim>1</dim>
					<dim>320</dim>
				</port>
			</output>
		</layer>
		<layer id="12" name="Constant_87189" type="Convert" version="opset1">
			<data destination_type="f32" />
			<rt_info>
				<attribute name="decompression" version="0" />
			</rt_info>
			<input>
				<port id="0" precision="FP16">
					<dim>1</dim>
					<dim>1</dim>
					<dim>320</dim>
				</port>
			</input>
			<output>
				<port id="1" precision="FP32">
					<dim>1</dim>
					<dim>1</dim>
					<dim>320</dim>
				</port>
			</output>
		</layer>
		<layer id="13" name="Constant_87188_compressed" type="Const" version="opset1">
			<data element_type="f16" shape="1, 1, 2560" offset="7680" size="5120" />
			<output>
				<port id="0" precision="FP16">
					<dim>1</dim>
					<dim>1</dim>
					<dim>2560</dim>
				</port>
			</output>
		</layer>
		<layer id="14" name="Constant_87188" type="Convert" version="opset1">
			<data destination_type="f32" />
			<rt_info>
				<attribute name="decompression" version="0" />
			</rt_info>
			<input>
				<port id="0" precision="FP16">
					<dim>1</dim>
					<dim>1</dim>
					<dim>2560</dim>
				</port>
			</input>
			<output>
				<port id="1" precision="FP32">
					<dim>1</dim>
					<dim>1</dim>
					<dim>2560</dim>
				</port>
			</output>
		</layer>
		<layer id="15" name="Constant_87185_compressed" type="Const" version="opset1">
			<data element_type="f16" shape="1, 1, 320" offset="12800" size="640" />
			<output>
				<port id="0" precision="FP16">
					<dim>1</dim>
					<dim>1</dim>
					<dim>320</dim>
				</port>
			</output>
		</layer>
		<layer id="16" name="Constant_87185" type="Convert" version="opset1">
			<data destination_type="f32" />
			<rt_info>
				<attribute name="decompression" version="0" />
			</rt_info>
			<input>
				<port id="0" precision="FP16">
					<dim>1</dim>
					<dim>1</dim>
					<dim>320</dim>
				</port>
			</input>
			<output>
				<port id="1" precision="FP32">
					<dim>1</dim>
					<dim>1</dim>
					<dim>320</dim>
				</port>
			</output>
		</layer>
		<layer id="17" name="Constant_87181_compressed" type="Const" version="opset1">
			<data element_type="f16" shape="1, 1, 320" offset="13440" size="640" />
			<output>
				<port id="0" precision="FP16">
					<dim>1</dim>
					<dim>1</dim>
					<dim>320</dim>
				</port>
			</output>
		</layer>
		<layer id="18" name="Constant_87181" type="Convert" version="opset1">
			<data destination_type="f32" />
			<rt_info>
				<attribute name="decompression" version="0" />
			</rt_info>
			<input>
				<port id="0" precision="FP16">
					<dim>1</dim>
					<dim>1</dim>
					<dim>320</dim>
				</port>
			</input>
			<output>
				<port id="1" precision="FP32">
					<dim>1</dim>
					<dim>1</dim>
					<dim>320</dim>
				</port>
			</output>
		</layer>
		<layer id="19" name="Constant_87170_compressed" type="Const" version="opset1">
			<data element_type="f16" shape="1, 1, 320" offset="14080" size="640" />
			<output>
				<port id="0" precision="FP16">
					<dim>1</dim>
					<dim>1</dim>
					<dim>320</dim>
				</port>
			</output>
		</layer>
		<layer id="20" name="Constant_87170" type="Convert" version="opset1">
			<data destination_type="f32" />
			<rt_info>
				<attribute name="decompression" version="0" />
			</rt_info>
			<input>
				<port id="0" precision="FP16">
					<dim>1</dim>
					<dim>1</dim>
					<dim>320</dim>
				</port>
			</input>
			<output>
				<port id="1" precision="FP32">
					<dim>1</dim>
					<dim>1</dim>
					<dim>320</dim>
				</port>
			</output>
		</layer>
		<layer id="21" name="Constant_87169_compressed" type="Const" version="opset1">
			<data element_type="f16" shape="1, 1, 2560" offset="14720" size="5120" />
			<output>
				<port id="0" precision="FP16">
					<dim>1</dim>
					<dim>1</dim>
					<dim>2560</dim>
				</port>
			</output>
		</layer>
		<layer id="22" name="Constant_87169" type="Convert" version="opset1">
			<data destination_type="f32" />
			<rt_info>
				<attribute name="decompression" version="0" />
			</rt_info>
			<input>
				<port id="0" precision="FP16">
					<dim>1</dim>
					<dim>1</dim>
					<dim>2560</dim>
				</port>
			</input>
			<output>
				<port id="1" precision="FP32">
					<dim>1</dim>
					<dim>1</dim>
					<dim>2560</dim>
				</port>
			</output>
		</layer>
		<layer id="23" name="Constant_87166_compressed" type="Const" version="opset1">
			<data element_type="f16" shape="1, 1, 320" offset="19840" size="640" />
			<output>
				<port id="0" precision="FP16">
					<dim>1</dim>
					<dim>1</dim>
					<dim>320</dim>
				</port>
			</output>
		</layer>
		<layer id="24" name="Constant_87166" type="Convert" version="opset1">
			<data destination_type="f32" />
			<rt_info>
				<attribute name="decompression" version="0" />
			</rt_info>
			<input>
				<port id="0" precision="FP16">
					<dim>1</dim>
					<dim>1</dim>
					<dim>320</dim>
				</port>
			</input>
			<output>
				<port id="1" precision="FP32">
					<dim>1</dim>
					<dim>1</dim>
					<dim>320</dim>
				</port>
			</output>
		</layer>
		<layer id="25" name="Constant_87162_compressed" type="Const" version="opset1">
			<data element_type="f16" shape="1, 1, 320" offset="20480" size="640" />
			<output>
				<port id="0" precision="FP16">
					<dim>1</dim>
					<dim>1</dim>
					<dim>320</dim>
				</port>
			</output>
		</layer>
		<layer id="26" name="Constant_87162" type="Convert" version="opset1">
			<data destination_type="f32" />
			<rt_info>
				<attribute name="decompression" version="0" />
			</rt_info>
			<input>
				<port id="0" precision="FP16">
					<dim>1</dim>
					<dim>1</dim>
					<dim>320</dim>
				</port>
			</input>
			<output>
				<port id="1" precision="FP32">
					<dim>1</dim>
					<dim>1</dim>
					<dim>320</dim>
				</port>
			</output>
		</layer>
		<layer id="27" name="Constant_87151_compressed" type="Const" version="opset1">
			<data element_type="f16" shape="1, 1, 640" offset="21120" size="1280" />
			<output>
				<port id="0" precision="FP16">
					<dim>1</dim>
					<dim>1</dim>
					<dim>640</dim>
				</port>
			</output>
		</layer>
		<layer id="28" name="Constant_87151" type="Convert" version="opset1">
			<data destination_type="f32" />
			<rt_info>
				<attribute name="decompression" version="0" />
			</rt_info>
			<input>
				<port id="0" precision="FP16">
					<dim>1</dim>
					<dim>1</dim>
					<dim>640</dim>
				</port>
			</input>
			<output>
				<port id="1" precision="FP32">
					<dim>1</dim>
					<dim>1</dim>
					<dim>640</dim>
				</port>
			</output>
		</layer>
		<layer id="29" name="Constant_87150_compressed" type="Const" version="opset1">
			<data element_type="f16" shape="1, 1, 5120" offset="22400" size="10240" />
			<output>
				<port id="0" precision="FP16">
					<dim>1</dim>
					<dim>1</dim>
					<dim>5120</dim>
				</port>
			</output>
		</layer>
		<layer id="30" name="Constant_87150" type="Convert" version="opset1">
			<data destination_type="f32" />
			<rt_info>
				<attribute name="decompression" version="0" />
			</rt_info>
			<input>
				<port id="0" precision="FP16">
					<dim>1</dim>
					<dim>1</dim>
					<dim>5120</dim>
				</port>
			</input>
			<output>
				<port id="1" precision="FP32">
					<dim>1</dim>
					<dim>1</dim>
					<dim>5120</dim>
				</port>
			</output>
		</layer>
		<layer id="31" name="Constant_87147_compressed" type="Const" version="opset1">
			<data element_type="f16" shape="1, 1, 640" offset="32640" size="1280" />
			<output>
				<port id="0" precision="FP16">
					<dim>1</dim>
					<dim>1</dim>
					<dim>640</dim>
				</port>
			</output>
		</layer>
		<layer id="32" name="Constant_87147" type="Convert" version="opset1">
			<data destination_type="f32" />
			<rt_info>
				<attribute name="decompression" version="0" />
			</rt_info>
			<input>
				<port id="0" precision="FP16">
					<dim>1</dim>
					<dim>1</dim>
					<dim>640</dim>
				</port>
			</input>
			<output>
				<port id="1" precision="FP32">
					<dim>1</dim>
					<dim>1</dim>
					<dim>640</dim>
				</port>
			</output>
		</layer>
		<layer id="33" name="Constant_87143_compressed" type="Const" version="opset1">
			<data element_type="f16" shape="1, 1, 640" offset="33920" size="1280" />
			<output>
				<port id="0" precision="FP16">
					<dim>1</dim>
					<dim>1</dim>
					<dim>640</dim>
				</port>
			</output>
		</layer>
		<layer id="34" name="Constant_87143" type="Convert" version="opset1">
			<data destination_type="f32" />
			<rt_info>
				<attribute name="decompression" version="0" />
			</rt_info>
			<input>
				<port id="0" precision="FP16">
					<dim>1</dim>
					<dim>1</dim>
					<dim>640</dim>
				</port>
			</input>
			<output>
				<port id="1" precision="FP32">
					<dim>1</dim>
					<dim>1</dim>
					<dim>640</dim>
				</port>
			</output>
		</layer>
		<layer id="35" name="Constant_87132_compressed" type="Const" version="opset1">
			<data element_type="f16" shape="1, 1, 640" offset="35200" size="1280" />
			<output>
				<port id="0" precision="FP16">
					<dim>1</dim>
					<dim>1</dim>
					<dim>640</dim>
				</port>
			</output>
		</layer>
		<layer id="36" name="Constant_87132" type="Convert" version="opset1">
			<data destination_type="f32" />
			<rt_info>
				<attribute name="decompression" version="0" />
			</rt_info>
			<input>
				<port id="0" precision="FP16">
					<dim>1</dim>
					<dim>1</dim>
					<dim>640</dim>
				</port>
			</input>
			<output>
				<port id="1" precision="FP32">
					<dim>1</dim>
					<dim>1</dim>
					<dim>640</dim>
				</port>
			</output>
		</layer>
		<layer id="37" name="Constant_87131_compressed" type="Const" version="opset1">
			<data element_type="f16" shape="1, 1, 5120" offset="36480" size="10240" />
			<output>
				<port id="0" precision="FP16">
					<dim>1</dim>
					<dim>1</dim>
					<dim>5120</dim>
				</port>
			</output>
		</layer>
		<layer id="38" name="Constant_87131" type="Convert" version="opset1">
			<data destination_type="f32" />
			<rt_info>
				<attribute name="decompression" version="0" />
			</rt_info>
			<input>
				<port id="0" precision="FP16">
					<dim>1</dim>
					<dim>1</dim>
					<dim>5120</dim>
				</port>
			</input>
			<output>
				<port id="1" precision="FP32">
					<dim>1</dim>
					<dim>1</dim>
					<dim>5120</dim>
				</port>
			</output>
		</layer>
		<layer id="39" name="Constant_87128_compressed" type="Const" version="opset1">
			<data element_type="f16" shape="1, 1, 640" offset="46720" size="1280" />
			<output>
				<port id="0" precision="FP16">
					<dim>1</dim>
					<dim>1</dim>
					<dim>640</dim>
				</port>
			</output>
		</layer>
		<layer id="40" name="Constant_87128" type="Convert" version="opset1">
			<data destination_type="f32" />
			<rt_info>
				<attribute name="decompression" version="0" />
			</rt_info>
			<input>
				<port id="0" precision="FP16">
					<dim>1</dim>
					<dim>1</dim>
					<dim>640</dim>
				</port>
			</input>
			<output>
				<port id="1" precision="FP32">
					<dim>1</dim>
					<dim>1</dim>
					<dim>640</dim>
				</port>
			</output>
		</layer>
		<layer id="41" name="Constant_87124_compressed" type="Const" version="opset1">
			<data element_type="f16" shape="1, 1, 640" offset="48000" size="1280" />
			<output>
				<port id="0" precision="FP16">
					<dim>1</dim>
					<dim>1</dim>
					<dim>640</dim>
				</port>
			</output>
		</layer>
		<layer id="42" name="Constant_87124" type="Convert" version="opset1">
			<data destination_type="f32" />
			<rt_info>
				<attribute name="decompression" version="0" />
			</rt_info>
			<input>
				<port id="0" precision="FP16">
					<dim>1</dim>
					<dim>1</dim>
					<dim>640</dim>
				</port>
			</input>
			<output>
				<port id="1" precision="FP32">
					<dim>1</dim>
					<dim>1</dim>
					<dim>640</dim>
				</port>
			</output>
		</layer>
		<layer id="43" name="Constant_87113_compressed" type="Const" version="opset1">
			<data element_type="f16" shape="1, 1, 640" offset="49280" size="1280" />
			<output>
				<port id="0" precision="FP16">
					<dim>1</dim>
					<dim>1</dim>
					<dim>640</dim>
				</port>
			</output>
		</layer>
		<layer id="44" name="Constant_87113" type="Convert" version="opset1">
			<data destination_type="f32" />
			<rt_info>
				<attribute name="decompression" version="0" />
			</rt_info>
			<input>
				<port id="0" precision="FP16">
					<dim>1</dim>
					<dim>1</dim>
					<dim>640</dim>
				</port>
			</input>
			<output>
				<port id="1" precision="FP32">
					<dim>1</dim>
					<dim>1</dim>
					<dim>640</dim>
				</port>
			</output>
		</layer>
		<layer id="45" name="Constant_87112_compressed" type="Const" version="opset1">
			<data element_type="f16" shape="1, 1, 5120" offset="50560" size="10240" />
			<output>
				<port id="0" precision="FP16">
					<dim>1</dim>
					<dim>1</dim>
					<dim>5120</dim>
				</port>
			</output>
		</layer>
		<layer id="46" name="Constant_87112" type="Convert" version="opset1">
			<data destination_type="f32" />
			<rt_info>
				<attribute name="decompression" version="0" />
			</rt_info>
			<input>
				<port id="0" precision="FP16">
					<dim>1</dim>
					<dim>1</dim>
					<dim>5120</dim>
				</port>
			</input>
			<output>
				<port id="1" precision="FP32">
					<dim>1</dim>
					<dim>1</dim>
					<dim>5120</dim>
				</port>
			</output>
		</layer>
		<layer id="47" name="Constant_87109_compressed" type="Const" version="opset1">
			<data element_type="f16" shape="1, 1, 640" offset="60800" size="1280" />
			<output>
				<port id="0" precision="FP16">
					<dim>1</dim>
					<dim>1</dim>
					<dim>640</dim>
				</port>
			</output>
		</layer>
		<layer id="48" name="Constant_87109" type="Convert" version="opset1">
			<data destination_type="f32" />
			<rt_info>
				<attribute name="decompression" version="0" />
			</rt_info>
			<input>
				<port id="0" precision="FP16">
					<dim>1</dim>
					<dim>1</dim>
					<dim>640</dim>
				</port>
			</input>
			<output>
				<port id="1" precision="FP32">
					<dim>1</dim>
					<dim>1</dim>
					<dim>640</dim>
				</port>
			</output>
		</layer>
		<layer id="49" name="Constant_87105_compressed" type="Const" version="opset1">
			<data element_type="f16" shape="1, 1, 640" offset="62080" size="1280" />
			<output>
				<port id="0" precision="FP16">
					<dim>1</dim>
					<dim>1</dim>
					<dim>640</dim>
				</port>
			</output>
		</layer>
		<layer id="50" name="Constant_87105" type="Convert" version="opset1">
			<data destination_type="f32" />
			<rt_info>
				<attribute name="decompression" version="0" />
			</rt_info>
			<input>
				<port id="0" precision="FP16">
					<dim>1</dim>
					<dim>1</dim>
					<dim>640</dim>
				</port>
			</input>
			<output>
				<port id="1" precision="FP32">
					<dim>1</dim>
					<dim>1</dim>
					<dim>640</dim>
				</port>
			</output>
		</layer>
		<layer id="51" name="Constant_87094_compressed" type="Const" version="opset1">
			<data element_type="f16" shape="1, 1, 1280" offset="63360" size="2560" />
			<output>
				<port id="0" precision="FP16">
					<dim>1</dim>
					<dim>1</dim>
					<dim>1280</dim>
				</port>
			</output>
		</layer>
		<layer id="52" name="Constant_87094" type="Convert" version="opset1">
			<data destination_type="f32" />
			<rt_info>
				<attribute name="decompression" version="0" />
			</rt_info>
			<input>
				<port id="0" precision="FP16">
					<dim>1</dim>
					<dim>1</dim>
					<dim>1280</dim>
				</port>
			</input>
			<output>
				<port id="1" precision="FP32">
					<dim>1</dim>
					<dim>1</dim>
					<dim>1280</dim>
				</port>
			</output>
		</layer>
		<layer id="53" name="Constant_87093_compressed" type="Const" version="opset1">
			<data element_type="f16" shape="1, 1, 10240" offset="65920" size="20480" />
			<output>
				<port id="0" precision="FP16">
					<dim>1</dim>
					<dim>1</dim>
					<dim>10240</dim>
				</port>
			</output>
		</layer>
		<layer id="54" name="Constant_87093" type="Convert" version="opset1">
			<data destination_type="f32" />
			<rt_info>
				<attribute name="decompression" version="0" />
			</rt_info>
			<input>
				<port id="0" precision="FP16">
					<dim>1</dim>
					<dim>1</dim>
					<dim>10240</dim>
				</port>
			</input>
			<output>
				<port id="1" precision="FP32">
					<dim>1</dim>
					<dim>1</dim>
					<dim>10240</dim>
				</port>
			</output>
		</layer>
		<layer id="55" name="Constant_87090_compressed" type="Const" version="opset1">
			<data element_type="f16" shape="1, 1, 1280" offset="86400" size="2560" />
			<output>
				<port id="0" precision="FP16">
					<dim>1</dim>
					<dim>1</dim>
					<dim>1280</dim>
				</port>
			</output>
		</layer>
		<layer id="56" name="Constant_87090" type="Convert" version="opset1">
			<data destination_type="f32" />
			<rt_info>
				<attribute name="decompression" version="0" />
			</rt_info>
			<input>
				<port id="0" precision="FP16">
					<dim>1</dim>
					<dim>1</dim>
					<dim>1280</dim>
				</port>
			</input>
			<output>
				<port id="1" precision="FP32">
					<dim>1</dim>
					<dim>1</dim>
					<dim>1280</dim>
				</port>
			</output>
		</layer>
		<layer id="57" name="Constant_87086_compressed" type="Const" version="opset1">
			<data element_type="f16" shape="1, 1, 1280" offset="88960" size="2560" />
			<output>
				<port id="0" precision="FP16">
					<dim>1</dim>
					<dim>1</dim>
					<dim>1280</dim>
				</port>
			</output>
		</layer>
		<layer id="58" name="Constant_87086" type="Convert" version="opset1">
			<data destination_type="f32" />
			<rt_info>
				<attribute name="decompression" version="0" />
			</rt_info>
			<input>
				<port id="0" precision="FP16">
					<dim>1</dim>
					<dim>1</dim>
					<dim>1280</dim>
				</port>
			</input>
			<output>
				<port id="1" precision="FP32">
					<dim>1</dim>
					<dim>1</dim>
					<dim>1280</dim>
				</port>
			</output>
		</layer>
		<layer id="59" name="Constant_87075_compressed" type="Const" version="opset1">
			<data element_type="f16" shape="1, 1, 1280" offset="91520" size="2560" />
			<output>
				<port id="0" precision="FP16">
					<dim>1</dim>
					<dim>1</dim>
					<dim>1280</dim>
				</port>
			</output>
		</layer>
		<layer id="60" name="Constant_87075" type="Convert" version="opset1">
			<data destination_type="f32" />
			<rt_info>
				<attribute name="decompression" version="0" />
			</rt_info>
			<input>
				<port id="0" precision="FP16">
					<dim>1</dim>
					<dim>1</dim>
					<dim>1280</dim>
				</port>
			</input>
			<output>
				<port id="1" precision="FP32">
					<dim>1</dim>
					<dim>1</dim>
					<dim>1280</dim>
				</port>
			</output>
		</layer>
		<layer id="61" name="Constant_87074_compressed" type="Const" version="opset1">
			<data element_type="f16" shape="1, 1, 10240" offset="94080" size="20480" />
			<output>
				<port id="0" precision="FP16">
					<dim>1</dim>
					<dim>1</dim>
					<dim>10240</dim>
				</port>
			</output>
		</layer>
		<layer id="62" name="Constant_87074" type="Convert" version="opset1">
			<data destination_type="f32" />
			<rt_info>
				<attribute name="decompression" version="0" />
			</rt_info>
			<input>
				<port id="0" precision="FP16">
					<dim>1</dim>
					<dim>1</dim>
					<dim>10240</dim>
				</port>
			</input>
			<output>
				<port id="1" precision="FP32">
					<dim>1</dim>
					<dim>1</dim>
					<dim>10240</dim>
				</port>
			</output>
		</layer>
		<layer id="63" name="Constant_87071_compressed" type="Const" version="opset1">
			<data element_type="f16" shape="1, 1, 1280" offset="114560" size="2560" />
			<output>
				<port id="0" precision="FP16">
					<dim>1</dim>
					<dim>1</dim>
					<dim>1280</dim>
				</port>
			</output>
		</layer>
		<layer id="64" name="Constant_87071" type="Convert" version="opset1">
			<data destination_type="f32" />
			<rt_info>
				<attribute name="decompression" version="0" />
			</rt_info>
			<input>
				<port id="0" precision="FP16">
					<dim>1</dim>
					<dim>1</dim>
					<dim>1280</dim>
				</port>
			</input>
			<output>
				<port id="1" precision="FP32">
					<dim>1</dim>
					<dim>1</dim>
					<dim>1280</dim>
				</port>
			</output>
		</layer>
		<layer id="65" name="Constant_87067_compressed" type="Const" version="opset1">
			<data element_type="f16" shape="1, 1, 1280" offset="117120" size="2560" />
			<output>
				<port id="0" precision="FP16">
					<dim>1</dim>
					<dim>1</dim>
					<dim>1280</dim>
				</port>
			</output>
		</layer>
		<layer id="66" name="Constant_87067" type="Convert" version="opset1">
			<data destination_type="f32" />
			<rt_info>
				<attribute name="decompression" version="0" />
			</rt_info>
			<input>
				<port id="0" precision="FP16">
					<dim>1</dim>
					<dim>1</dim>
					<dim>1280</dim>
				</port>
			</input>
			<output>
				<port id="1" precision="FP32">
					<dim>1</dim>
					<dim>1</dim>
					<dim>1280</dim>
				</port>
			</output>
		</layer>
		<layer id="67" name="Constant_87056_compressed" type="Const" version="opset1">
			<data element_type="f16" shape="1, 1, 1280" offset="119680" size="2560" />
			<output>
				<port id="0" precision="FP16">
					<dim>1</dim>
					<dim>1</dim>
					<dim>1280</dim>
				</port>
			</output>
		</layer>
		<layer id="68" name="Constant_87056" type="Convert" version="opset1">
			<data destination_type="f32" />
			<rt_info>
				<attribute name="decompression" version="0" />
			</rt_info>
			<input>
				<port id="0" precision="FP16">
					<dim>1</dim>
					<dim>1</dim>
					<dim>1280</dim>
				</port>
			</input>
			<output>
				<port id="1" precision="FP32">
					<dim>1</dim>
					<dim>1</dim>
					<dim>1280</dim>
				</port>
			</output>
		</layer>
		<layer id="69" name="Constant_87055_compressed" type="Const" version="opset1">
			<data element_type="f16" shape="1, 1, 10240" offset="122240" size="20480" />
			<output>
				<port id="0" precision="FP16">
					<dim>1</dim>
					<dim>1</dim>
					<dim>10240</dim>
				</port>
			</output>
		</layer>
		<layer id="70" name="Constant_87055" type="Convert" version="opset1">
			<data destination_type="f32" />
			<rt_info>
				<attribute name="decompression" version="0" />
			</rt_info>
			<input>
				<port id="0" precision="FP16">
					<dim>1</dim>
					<dim>1</dim>
					<dim>10240</dim>
				</port>
			</input>
			<output>
				<port id="1" precision="FP32">
					<dim>1</dim>
					<dim>1</dim>
					<dim>10240</dim>
				</port>
			</output>
		</layer>
		<layer id="71" name="Constant_87052_compressed" type="Const" version="opset1">
			<data element_type="f16" shape="1, 1, 1280" offset="142720" size="2560" />
			<output>
				<port id="0" precision="FP16">
					<dim>1</dim>
					<dim>1</dim>
					<dim>1280</dim>
				</port>
			</output>
		</layer>
		<layer id="72" name="Constant_87052" type="Convert" version="opset1">
			<data destination_type="f32" />
			<rt_info>
				<attribute name="decompression" version="0" />
			</rt_info>
			<input>
				<port id="0" precision="FP16">
					<dim>1</dim>
					<dim>1</dim>
					<dim>1280</dim>
				</port>
			</input>
			<output>
				<port id="1" precision="FP32">
					<dim>1</dim>
					<dim>1</dim>
					<dim>1280</dim>
				</port>
			</output>
		</layer>
		<layer id="73" name="Constant_87048_compressed" type="Const" version="opset1">
			<data element_type="f16" shape="1, 1, 1280" offset="145280" size="2560" />
			<output>
				<port id="0" precision="FP16">
					<dim>1</dim>
					<dim>1</dim>
					<dim>1280</dim>
				</port>
			</output>
		</layer>
		<layer id="74" name="Constant_87048" type="Convert" version="opset1">
			<data destination_type="f32" />
			<rt_info>
				<attribute name="decompression" version="0" />
			</rt_info>
			<input>
				<port id="0" precision="FP16">
					<dim>1</dim>
					<dim>1</dim>
					<dim>1280</dim>
				</port>
			</input>
			<output>
				<port id="1" precision="FP32">
					<dim>1</dim>
					<dim>1</dim>
					<dim>1280</dim>
				</port>
			</output>
		</layer>
		<layer id="75" name="Constant_87017_compressed" type="Const" version="opset1">
			<data element_type="f16" shape="1, 1, 1280" offset="147840" size="2560" />
			<output>
				<port id="0" precision="FP16">
					<dim>1</dim>
					<dim>1</dim>
					<dim>1280</dim>
				</port>
			</output>
		</layer>
		<layer id="76" name="Constant_87017" type="Convert" version="opset1">
			<data destination_type="f32" />
			<rt_info>
				<attribute name="decompression" version="0" />
			</rt_info>
			<input>
				<port id="0" precision="FP16">
					<dim>1</dim>
					<dim>1</dim>
					<dim>1280</dim>
				</port>
			</input>
			<output>
				<port id="1" precision="FP32">
					<dim>1</dim>
					<dim>1</dim>
					<dim>1280</dim>
				</port>
			</output>
		</layer>
		<layer id="77" name="Constant_87016_compressed" type="Const" version="opset1">
			<data element_type="f16" shape="1, 1, 10240" offset="150400" size="20480" />
			<output>
				<port id="0" precision="FP16">
					<dim>1</dim>
					<dim>1</dim>
					<dim>10240</dim>
				</port>
			</output>
		</layer>
		<layer id="78" name="Constant_87016" type="Convert" version="opset1">
			<data destination_type="f32" />
			<rt_info>
				<attribute name="decompression" version="0" />
			</rt_info>
			<input>
				<port id="0" precision="FP16">
					<dim>1</dim>
					<dim>1</dim>
					<dim>10240</dim>
				</port>
			</input>
			<output>
				<port id="1" precision="FP32">
					<dim>1</dim>
					<dim>1</dim>
					<dim>10240</dim>
				</port>
			</output>
		</layer>
		<layer id="79" name="Constant_87013_compressed" type="Const" version="opset1">
			<data element_type="f16" shape="1, 1, 1280" offset="170880" size="2560" />
			<output>
				<port id="0" precision="FP16">
					<dim>1</dim>
					<dim>1</dim>
					<dim>1280</dim>
				</port>
			</output>
		</layer>
		<layer id="80" name="Constant_87013" type="Convert" version="opset1">
			<data destination_type="f32" />
			<rt_info>
				<attribute name="decompression" version="0" />
			</rt_info>
			<input>
				<port id="0" precision="FP16">
					<dim>1</dim>
					<dim>1</dim>
					<dim>1280</dim>
				</port>
			</input>
			<output>
				<port id="1" precision="FP32">
					<dim>1</dim>
					<dim>1</dim>
					<dim>1280</dim>
				</port>
			</output>
		</layer>
		<layer id="81" name="Constant_87009_compressed" type="Const" version="opset1">
			<data element_type="f16" shape="1, 1, 1280" offset="173440" size="2560" />
			<output>
				<port id="0" precision="FP16">
					<dim>1</dim>
					<dim>1</dim>
					<dim>1280</dim>
				</port>
			</output>
		</layer>
		<layer id="82" name="Constant_87009" type="Convert" version="opset1">
			<data destination_type="f32" />
			<rt_info>
				<attribute name="decompression" version="0" />
			</rt_info>
			<input>
				<port id="0" precision="FP16">
					<dim>1</dim>
					<dim>1</dim>
					<dim>1280</dim>
				</port>
			</input>
			<output>
				<port id="1" precision="FP32">
					<dim>1</dim>
					<dim>1</dim>
					<dim>1280</dim>
				</port>
			</output>
		</layer>
		<layer id="83" name="Constant_86988_compressed" type="Const" version="opset1">
			<data element_type="f16" shape="1, 1, 1280" offset="176000" size="2560" />
			<output>
				<port id="0" precision="FP16">
					<dim>1</dim>
					<dim>1</dim>
					<dim>1280</dim>
				</port>
			</output>
		</layer>
		<layer id="84" name="Constant_86988" type="Convert" version="opset1">
			<data destination_type="f32" />
			<rt_info>
				<attribute name="decompression" version="0" />
			</rt_info>
			<input>
				<port id="0" precision="FP16">
					<dim>1</dim>
					<dim>1</dim>
					<dim>1280</dim>
				</port>
			</input>
			<output>
				<port id="1" precision="FP32">
					<dim>1</dim>
					<dim>1</dim>
					<dim>1280</dim>
				</port>
			</output>
		</layer>
		<layer id="85" name="Constant_86987_compressed" type="Const" version="opset1">
			<data element_type="f16" shape="1, 1, 10240" offset="178560" size="20480" />
			<output>
				<port id="0" precision="FP16">
					<dim>1</dim>
					<dim>1</dim>
					<dim>10240</dim>
				</port>
			</output>
		</layer>
		<layer id="86" name="Constant_86987" type="Convert" version="opset1">
			<data destination_type="f32" />
			<rt_info>
				<attribute name="decompression" version="0" />
			</rt_info>
			<input>
				<port id="0" precision="FP16">
					<dim>1</dim>
					<dim>1</dim>
					<dim>10240</dim>
				</port>
			</input>
			<output>
				<port id="1" precision="FP32">
					<dim>1</dim>
					<dim>1</dim>
					<dim>10240</dim>
				</port>
			</output>
		</layer>
		<layer id="87" name="Constant_86984_compressed" type="Const" version="opset1">
			<data element_type="f16" shape="1, 1, 1280" offset="199040" size="2560" />
			<output>
				<port id="0" precision="FP16">
					<dim>1</dim>
					<dim>1</dim>
					<dim>1280</dim>
				</port>
			</output>
		</layer>
		<layer id="88" name="Constant_86984" type="Convert" version="opset1">
			<data destination_type="f32" />
			<rt_info>
				<attribute name="decompression" version="0" />
			</rt_info>
			<input>
				<port id="0" precision="FP16">
					<dim>1</dim>
					<dim>1</dim>
					<dim>1280</dim>
				</port>
			</input>
			<output>
				<port id="1" precision="FP32">
					<dim>1</dim>
					<dim>1</dim>
					<dim>1280</dim>
				</port>
			</output>
		</layer>
		<layer id="89" name="Constant_86980_compressed" type="Const" version="opset1">
			<data element_type="f16" shape="1, 1, 1280" offset="201600" size="2560" />
			<output>
				<port id="0" precision="FP16">
					<dim>1</dim>
					<dim>1</dim>
					<dim>1280</dim>
				</port>
			</output>
		</layer>
		<layer id="90" name="Constant_86980" type="Convert" version="opset1">
			<data destination_type="f32" />
			<rt_info>
				<attribute name="decompression" version="0" />
			</rt_info>
			<input>
				<port id="0" precision="FP16">
					<dim>1</dim>
					<dim>1</dim>
					<dim>1280</dim>
				</port>
			</input>
			<output>
				<port id="1" precision="FP32">
					<dim>1</dim>
					<dim>1</dim>
					<dim>1280</dim>
				</port>
			</output>
		</layer>
		<layer id="91" name="Constant_86969_compressed" type="Const" version="opset1">
			<data element_type="f16" shape="1, 1, 1280" offset="204160" size="2560" />
			<output>
				<port id="0" precision="FP16">
					<dim>1</dim>
					<dim>1</dim>
					<dim>1280</dim>
				</port>
			</output>
		</layer>
		<layer id="92" name="Constant_86969" type="Convert" version="opset1">
			<data destination_type="f32" />
			<rt_info>
				<attribute name="decompression" version="0" />
			</rt_info>
			<input>
				<port id="0" precision="FP16">
					<dim>1</dim>
					<dim>1</dim>
					<dim>1280</dim>
				</port>
			</input>
			<output>
				<port id="1" precision="FP32">
					<dim>1</dim>
					<dim>1</dim>
					<dim>1280</dim>
				</port>
			</output>
		</layer>
		<layer id="93" name="Constant_86968_compressed" type="Const" version="opset1">
			<data element_type="f16" shape="1, 1, 10240" offset="206720" size="20480" />
			<output>
				<port id="0" precision="FP16">
					<dim>1</dim>
					<dim>1</dim>
					<dim>10240</dim>
				</port>
			</output>
		</layer>
		<layer id="94" name="Constant_86968" type="Convert" version="opset1">
			<data destination_type="f32" />
			<rt_info>
				<attribute name="decompression" version="0" />
			</rt_info>
			<input>
				<port id="0" precision="FP16">
					<dim>1</dim>
					<dim>1</dim>
					<dim>10240</dim>
				</port>
			</input>
			<output>
				<port id="1" precision="FP32">
					<dim>1</dim>
					<dim>1</dim>
					<dim>10240</dim>
				</port>
			</output>
		</layer>
		<layer id="95" name="Constant_86965_compressed" type="Const" version="opset1">
			<data element_type="f16" shape="1, 1, 1280" offset="227200" size="2560" />
			<output>
				<port id="0" precision="FP16">
					<dim>1</dim>
					<dim>1</dim>
					<dim>1280</dim>
				</port>
			</output>
		</layer>
		<layer id="96" name="Constant_86965" type="Convert" version="opset1">
			<data destination_type="f32" />
			<rt_info>
				<attribute name="decompression" version="0" />
			</rt_info>
			<input>
				<port id="0" precision="FP16">
					<dim>1</dim>
					<dim>1</dim>
					<dim>1280</dim>
				</port>
			</input>
			<output>
				<port id="1" precision="FP32">
					<dim>1</dim>
					<dim>1</dim>
					<dim>1280</dim>
				</port>
			</output>
		</layer>
		<layer id="97" name="Constant_86961_compressed" type="Const" version="opset1">
			<data element_type="f16" shape="1, 1, 1280" offset="229760" size="2560" />
			<output>
				<port id="0" precision="FP16">
					<dim>1</dim>
					<dim>1</dim>
					<dim>1280</dim>
				</port>
			</output>
		</layer>
		<layer id="98" name="Constant_86961" type="Convert" version="opset1">
			<data destination_type="f32" />
			<rt_info>
				<attribute name="decompression" version="0" />
			</rt_info>
			<input>
				<port id="0" precision="FP16">
					<dim>1</dim>
					<dim>1</dim>
					<dim>1280</dim>
				</port>
			</input>
			<output>
				<port id="1" precision="FP32">
					<dim>1</dim>
					<dim>1</dim>
					<dim>1280</dim>
				</port>
			</output>
		</layer>
		<layer id="99" name="Constant_86950_compressed" type="Const" version="opset1">
			<data element_type="f16" shape="1, 1, 640" offset="232320" size="1280" />
			<output>
				<port id="0" precision="FP16">
					<dim>1</dim>
					<dim>1</dim>
					<dim>640</dim>
				</port>
			</output>
		</layer>
		<layer id="100" name="Constant_86950" type="Convert" version="opset1">
			<data destination_type="f32" />
			<rt_info>
				<attribute name="decompression" version="0" />
			</rt_info>
			<input>
				<port id="0" precision="FP16">
					<dim>1</dim>
					<dim>1</dim>
					<dim>640</dim>
				</port>
			</input>
			<output>
				<port id="1" precision="FP32">
					<dim>1</dim>
					<dim>1</dim>
					<dim>640</dim>
				</port>
			</output>
		</layer>
		<layer id="101" name="Constant_86949_compressed" type="Const" version="opset1">
			<data element_type="f16" shape="1, 1, 5120" offset="233600" size="10240" />
			<output>
				<port id="0" precision="FP16">
					<dim>1</dim>
					<dim>1</dim>
					<dim>5120</dim>
				</port>
			</output>
		</layer>
		<layer id="102" name="Constant_86949" type="Convert" version="opset1">
			<data destination_type="f32" />
			<rt_info>
				<attribute name="decompression" version="0" />
			</rt_info>
			<input>
				<port id="0" precision="FP16">
					<dim>1</dim>
					<dim>1</dim>
					<dim>5120</dim>
				</port>
			</input>
			<output>
				<port id="1" precision="FP32">
					<dim>1</dim>
					<dim>1</dim>
					<dim>5120</dim>
				</port>
			</output>
		</layer>
		<layer id="103" name="Constant_86946_compressed" type="Const" version="opset1">
			<data element_type="f16" shape="1, 1, 640" offset="243840" size="1280" />
			<output>
				<port id="0" precision="FP16">
					<dim>1</dim>
					<dim>1</dim>
					<dim>640</dim>
				</port>
			</output>
		</layer>
		<layer id="104" name="Constant_86946" type="Convert" version="opset1">
			<data destination_type="f32" />
			<rt_info>
				<attribute name="decompression" version="0" />
			</rt_info>
			<input>
				<port id="0" precision="FP16">
					<dim>1</dim>
					<dim>1</dim>
					<dim>640</dim>
				</port>
			</input>
			<output>
				<port id="1" precision="FP32">
					<dim>1</dim>
					<dim>1</dim>
					<dim>640</dim>
				</port>
			</output>
		</layer>
		<layer id="105" name="Constant_86942_compressed" type="Const" version="opset1">
			<data element_type="f16" shape="1, 1, 640" offset="245120" size="1280" />
			<output>
				<port id="0" precision="FP16">
					<dim>1</dim>
					<dim>1</dim>
					<dim>640</dim>
				</port>
			</output>
		</layer>
		<layer id="106" name="Constant_86942" type="Convert" version="opset1">
			<data destination_type="f32" />
			<rt_info>
				<attribute name="decompression" version="0" />
			</rt_info>
			<input>
				<port id="0" precision="FP16">
					<dim>1</dim>
					<dim>1</dim>
					<dim>640</dim>
				</port>
			</input>
			<output>
				<port id="1" precision="FP32">
					<dim>1</dim>
					<dim>1</dim>
					<dim>640</dim>
				</port>
			</output>
		</layer>
		<layer id="107" name="Constant_86931_compressed" type="Const" version="opset1">
			<data element_type="f16" shape="1, 1, 640" offset="246400" size="1280" />
			<output>
				<port id="0" precision="FP16">
					<dim>1</dim>
					<dim>1</dim>
					<dim>640</dim>
				</port>
			</output>
		</layer>
		<layer id="108" name="Constant_86931" type="Convert" version="opset1">
			<data destination_type="f32" />
			<rt_info>
				<attribute name="decompression" version="0" />
			</rt_info>
			<input>
				<port id="0" precision="FP16">
					<dim>1</dim>
					<dim>1</dim>
					<dim>640</dim>
				</port>
			</input>
			<output>
				<port id="1" precision="FP32">
					<dim>1</dim>
					<dim>1</dim>
					<dim>640</dim>
				</port>
			</output>
		</layer>
		<layer id="109" name="Constant_86930_compressed" type="Const" version="opset1">
			<data element_type="f16" shape="1, 1, 5120" offset="247680" size="10240" />
			<output>
				<port id="0" precision="FP16">
					<dim>1</dim>
					<dim>1</dim>
					<dim>5120</dim>
				</port>
			</output>
		</layer>
		<layer id="110" name="Constant_86930" type="Convert" version="opset1">
			<data destination_type="f32" />
			<rt_info>
				<attribute name="decompression" version="0" />
			</rt_info>
			<input>
				<port id="0" precision="FP16">
					<dim>1</dim>
					<dim>1</dim>
					<dim>5120</dim>
				</port>
			</input>
			<output>
				<port id="1" precision="FP32">
					<dim>1</dim>
					<dim>1</dim>
					<dim>5120</dim>
				</port>
			</output>
		</layer>
		<layer id="111" name="Constant_86927_compressed" type="Const" version="opset1">
			<data element_type="f16" shape="1, 1, 640" offset="257920" size="1280" />
			<output>
				<port id="0" precision="FP16">
					<dim>1</dim>
					<dim>1</dim>
					<dim>640</dim>
				</port>
			</output>
		</layer>
		<layer id="112" name="Constant_86927" type="Convert" version="opset1">
			<data destination_type="f32" />
			<rt_info>
				<attribute name="decompression" version="0" />
			</rt_info>
			<input>
				<port id="0" precision="FP16">
					<dim>1</dim>
					<dim>1</dim>
					<dim>640</dim>
				</port>
			</input>
			<output>
				<port id="1" precision="FP32">
					<dim>1</dim>
					<dim>1</dim>
					<dim>640</dim>
				</port>
			</output>
		</layer>
		<layer id="113" name="Constant_86923_compressed" type="Const" version="opset1">
			<data element_type="f16" shape="1, 1, 640" offset="259200" size="1280" />
			<output>
				<port id="0" precision="FP16">
					<dim>1</dim>
					<dim>1</dim>
					<dim>640</dim>
				</port>
			</output>
		</layer>
		<layer id="114" name="Constant_86923" type="Convert" version="opset1">
			<data destination_type="f32" />
			<rt_info>
				<attribute name="decompression" version="0" />
			</rt_info>
			<input>
				<port id="0" precision="FP16">
					<dim>1</dim>
					<dim>1</dim>
					<dim>640</dim>
				</port>
			</input>
			<output>
				<port id="1" precision="FP32">
					<dim>1</dim>
					<dim>1</dim>
					<dim>640</dim>
				</port>
			</output>
		</layer>
		<layer id="115" name="Constant_86912_compressed" type="Const" version="opset1">
			<data element_type="f16" shape="1, 1, 320" offset="260480" size="640" />
			<output>
				<port id="0" precision="FP16">
					<dim>1</dim>
					<dim>1</dim>
					<dim>320</dim>
				</port>
			</output>
		</layer>
		<layer id="116" name="Constant_86912" type="Convert" version="opset1">
			<data destination_type="f32" />
			<rt_info>
				<attribute name="decompression" version="0" />
			</rt_info>
			<input>
				<port id="0" precision="FP16">
					<dim>1</dim>
					<dim>1</dim>
					<dim>320</dim>
				</port>
			</input>
			<output>
				<port id="1" precision="FP32">
					<dim>1</dim>
					<dim>1</dim>
					<dim>320</dim>
				</port>
			</output>
		</layer>
		<layer id="117" name="Constant_86911_compressed" type="Const" version="opset1">
			<data element_type="f16" shape="1, 1, 2560" offset="261120" size="5120" />
			<output>
				<port id="0" precision="FP16">
					<dim>1</dim>
					<dim>1</dim>
					<dim>2560</dim>
				</port>
			</output>
		</layer>
		<layer id="118" name="Constant_86911" type="Convert" version="opset1">
			<data destination_type="f32" />
			<rt_info>
				<attribute name="decompression" version="0" />
			</rt_info>
			<input>
				<port id="0" precision="FP16">
					<dim>1</dim>
					<dim>1</dim>
					<dim>2560</dim>
				</port>
			</input>
			<output>
				<port id="1" precision="FP32">
					<dim>1</dim>
					<dim>1</dim>
					<dim>2560</dim>
				</port>
			</output>
		</layer>
		<layer id="119" name="Constant_86908_compressed" type="Const" version="opset1">
			<data element_type="f16" shape="1, 1, 320" offset="266240" size="640" />
			<output>
				<port id="0" precision="FP16">
					<dim>1</dim>
					<dim>1</dim>
					<dim>320</dim>
				</port>
			</output>
		</layer>
		<layer id="120" name="Constant_86908" type="Convert" version="opset1">
			<data destination_type="f32" />
			<rt_info>
				<attribute name="decompression" version="0" />
			</rt_info>
			<input>
				<port id="0" precision="FP16">
					<dim>1</dim>
					<dim>1</dim>
					<dim>320</dim>
				</port>
			</input>
			<output>
				<port id="1" precision="FP32">
					<dim>1</dim>
					<dim>1</dim>
					<dim>320</dim>
				</port>
			</output>
		</layer>
		<layer id="121" name="Constant_86904_compressed" type="Const" version="opset1">
			<data element_type="f16" shape="1, 1, 320" offset="266880" size="640" />
			<output>
				<port id="0" precision="FP16">
					<dim>1</dim>
					<dim>1</dim>
					<dim>320</dim>
				</port>
			</output>
		</layer>
		<layer id="122" name="Constant_86904" type="Convert" version="opset1">
			<data destination_type="f32" />
			<rt_info>
				<attribute name="decompression" version="0" />
			</rt_info>
			<input>
				<port id="0" precision="FP16">
					<dim>1</dim>
					<dim>1</dim>
					<dim>320</dim>
				</port>
			</input>
			<output>
				<port id="1" precision="FP32">
					<dim>1</dim>
					<dim>1</dim>
					<dim>320</dim>
				</port>
			</output>
		</layer>
		<layer id="123" name="Constant_86893_compressed" type="Const" version="opset1">
			<data element_type="f16" shape="1, 1, 320" offset="267520" size="640" />
			<output>
				<port id="0" precision="FP16">
					<dim>1</dim>
					<dim>1</dim>
					<dim>320</dim>
				</port>
			</output>
		</layer>
		<layer id="124" name="Constant_86893" type="Convert" version="opset1">
			<data destination_type="f32" />
			<rt_info>
				<attribute name="decompression" version="0" />
			</rt_info>
			<input>
				<port id="0" precision="FP16">
					<dim>1</dim>
					<dim>1</dim>
					<dim>320</dim>
				</port>
			</input>
			<output>
				<port id="1" precision="FP32">
					<dim>1</dim>
					<dim>1</dim>
					<dim>320</dim>
				</port>
			</output>
		</layer>
		<layer id="125" name="Constant_86892_compressed" type="Const" version="opset1">
			<data element_type="f16" shape="1, 1, 2560" offset="268160" size="5120" />
			<output>
				<port id="0" precision="FP16">
					<dim>1</dim>
					<dim>1</dim>
					<dim>2560</dim>
				</port>
			</output>
		</layer>
		<layer id="126" name="Constant_86892" type="Convert" version="opset1">
			<data destination_type="f32" />
			<rt_info>
				<attribute name="decompression" version="0" />
			</rt_info>
			<input>
				<port id="0" precision="FP16">
					<dim>1</dim>
					<dim>1</dim>
					<dim>2560</dim>
				</port>
			</input>
			<output>
				<port id="1" precision="FP32">
					<dim>1</dim>
					<dim>1</dim>
					<dim>2560</dim>
				</port>
			</output>
		</layer>
		<layer id="127" name="Constant_86889_compressed" type="Const" version="opset1">
			<data element_type="f16" shape="1, 1, 320" offset="273280" size="640" />
			<output>
				<port id="0" precision="FP16">
					<dim>1</dim>
					<dim>1</dim>
					<dim>320</dim>
				</port>
			</output>
		</layer>
		<layer id="128" name="Constant_86889" type="Convert" version="opset1">
			<data destination_type="f32" />
			<rt_info>
				<attribute name="decompression" version="0" />
			</rt_info>
			<input>
				<port id="0" precision="FP16">
					<dim>1</dim>
					<dim>1</dim>
					<dim>320</dim>
				</port>
			</input>
			<output>
				<port id="1" precision="FP32">
					<dim>1</dim>
					<dim>1</dim>
					<dim>320</dim>
				</port>
			</output>
		</layer>
		<layer id="129" name="Constant_86885_compressed" type="Const" version="opset1">
			<data element_type="f16" shape="1, 1, 320" offset="273920" size="640" />
			<output>
				<port id="0" precision="FP16">
					<dim>1</dim>
					<dim>1</dim>
					<dim>320</dim>
				</port>
			</output>
		</layer>
		<layer id="130" name="Constant_86885" type="Convert" version="opset1">
			<data destination_type="f32" />
			<rt_info>
				<attribute name="decompression" version="0" />
			</rt_info>
			<input>
				<port id="0" precision="FP16">
					<dim>1</dim>
					<dim>1</dim>
					<dim>320</dim>
				</port>
			</input>
			<output>
				<port id="1" precision="FP32">
					<dim>1</dim>
					<dim>1</dim>
					<dim>320</dim>
				</port>
			</output>
		</layer>
		<layer id="131" name="conv_in.weight_compressed" type="Const" version="opset1">
			<data element_type="f16" shape="320, 4, 3, 3" offset="274560" size="23040" />
			<output>
				<port id="0" precision="FP16">
					<dim>320</dim>
					<dim>4</dim>
					<dim>3</dim>
					<dim>3</dim>
				</port>
			</output>
		</layer>
		<layer id="132" name="conv_in.weight" type="Convert" version="opset1">
			<data destination_type="f32" />
			<rt_info>
				<attribute name="decompression" version="0" />
			</rt_info>
			<input>
				<port id="0" precision="FP16">
					<dim>320</dim>
					<dim>4</dim>
					<dim>3</dim>
					<dim>3</dim>
				</port>
			</input>
			<output>
				<port id="1" precision="FP32" names="conv_in.weight">
					<dim>320</dim>
					<dim>4</dim>
					<dim>3</dim>
					<dim>3</dim>
				</port>
			</output>
		</layer>
		<layer id="133" name="/conv_in/Conv/WithoutBiases" type="Convolution" version="opset1">
			<data strides="1, 1" dilations="1, 1" pads_begin="1, 1" pads_end="1, 1" auto_pad="explicit" />
			<input>
				<port id="0" precision="FP32">
					<dim>2</dim>
					<dim>4</dim>
					<dim>64</dim>
					<dim>64</dim>
				</port>
				<port id="1" precision="FP32">
					<dim>320</dim>
					<dim>4</dim>
					<dim>3</dim>
					<dim>3</dim>
				</port>
			</input>
			<output>
				<port id="2" precision="FP32">
					<dim>2</dim>
					<dim>320</dim>
					<dim>64</dim>
					<dim>64</dim>
				</port>
			</output>
		</layer>
		<layer id="134" name="Reshape_13518_compressed" type="Const" version="opset1">
			<data element_type="f16" shape="1, 320, 1, 1" offset="297600" size="640" />
			<output>
				<port id="0" precision="FP16">
					<dim>1</dim>
					<dim>320</dim>
					<dim>1</dim>
					<dim>1</dim>
				</port>
			</output>
		</layer>
		<layer id="135" name="Reshape_13518" type="Convert" version="opset1">
			<data destination_type="f32" />
			<rt_info>
				<attribute name="decompression" version="0" />
			</rt_info>
			<input>
				<port id="0" precision="FP16">
					<dim>1</dim>
					<dim>320</dim>
					<dim>1</dim>
					<dim>1</dim>
				</port>
			</input>
			<output>
				<port id="1" precision="FP32">
					<dim>1</dim>
					<dim>320</dim>
					<dim>1</dim>
					<dim>1</dim>
				</port>
			</output>
		</layer>
		<layer id="136" name="/conv_in/Conv" type="Add" version="opset1">
			<data auto_broadcast="numpy" />
			<input>
				<port id="0" precision="FP32">
					<dim>2</dim>
					<dim>320</dim>
					<dim>64</dim>
					<dim>64</dim>
				</port>
				<port id="1" precision="FP32">
					<dim>1</dim>
					<dim>320</dim>
					<dim>1</dim>
					<dim>1</dim>
				</port>
			</input>
			<output>
				<port id="2" precision="FP32" names="/conv_in/Conv_output_0">
					<dim>2</dim>
					<dim>320</dim>
					<dim>64</dim>
					<dim>64</dim>
				</port>
			</output>
		</layer>
		<layer id="137" name="/down_blocks.0/resnets.0/norm1/Constant" type="Const" version="opset1">
			<data element_type="i64" shape="3" offset="298240" size="24" />
			<output>
				<port id="0" precision="I64" names="/down_blocks.0/resnets.0/norm1/Constant_output_0">
					<dim>3</dim>
				</port>
			</output>
		</layer>
		<layer id="138" name="/down_blocks.0/resnets.0/norm1/Reshape" type="Reshape" version="opset1">
			<data special_zero="true" />
			<input>
				<port id="0" precision="FP32">
					<dim>2</dim>
					<dim>320</dim>
					<dim>64</dim>
					<dim>64</dim>
				</port>
				<port id="1" precision="I64">
					<dim>3</dim>
				</port>
			</input>
			<output>
				<port id="2" precision="FP32" names="/down_blocks.0/resnets.0/norm1/Reshape_output_0">
					<dim>2</dim>
					<dim>32</dim>
					<dim>40960</dim>
				</port>
			</output>
		</layer>
		<layer id="139" name="Constant_13555" type="Const" version="opset1">
			<data element_type="i64" shape="1" offset="298264" size="8" />
			<output>
				<port id="0" precision="I64">
					<dim>1</dim>
				</port>
			</output>
		</layer>
		<layer id="140" name="MVN_13556" type="MVN" version="opset6">
			<data eps="9.9999997473787516e-06" normalize_variance="true" eps_mode="INSIDE_SQRT" />
			<input>
				<port id="0" precision="FP32">
					<dim>2</dim>
					<dim>32</dim>
					<dim>40960</dim>
				</port>
				<port id="1" precision="I64">
					<dim>1</dim>
				</port>
			</input>
			<output>
				<port id="2" precision="FP32" names="/down_blocks.0/resnets.0/norm1/InstanceNormalization_output_0">
					<dim>2</dim>
					<dim>32</dim>
					<dim>40960</dim>
				</port>
			</output>
		</layer>
		<layer id="141" name="/down_blocks.0/resnets.0/norm1/Shape" type="ShapeOf" version="opset3">
			<data output_type="i64" />
			<input>
				<port id="0" precision="FP32">
					<dim>2</dim>
					<dim>320</dim>
					<dim>64</dim>
					<dim>64</dim>
				</port>
			</input>
			<output>
				<port id="1" precision="I64" names="/down_blocks.0/resnets.0/norm1/Shape_output_0">
					<dim>4</dim>
				</port>
			</output>
		</layer>
		<layer id="142" name="/down_blocks.0/resnets.0/norm1/Reshape_1" type="Reshape" version="opset1">
			<data special_zero="true" />
			<input>
				<port id="0" precision="FP32">
					<dim>2</dim>
					<dim>32</dim>
					<dim>40960</dim>
				</port>
				<port id="1" precision="I64">
					<dim>4</dim>
				</port>
			</input>
			<output>
				<port id="2" precision="FP32" names="/down_blocks.0/resnets.0/norm1/Reshape_1_output_0">
					<dim>2</dim>
					<dim>320</dim>
					<dim>64</dim>
					<dim>64</dim>
				</port>
			</output>
		</layer>
		<layer id="143" name="Constant_86873_compressed" type="Const" version="opset1">
			<data element_type="f16" shape="1, 320, 1, 1" offset="298272" size="640" />
			<output>
				<port id="0" precision="FP16">
					<dim>1</dim>
					<dim>320</dim>
					<dim>1</dim>
					<dim>1</dim>
				</port>
			</output>
		</layer>
		<layer id="144" name="Constant_86873" type="Convert" version="opset1">
			<data destination_type="f32" />
			<rt_info>
				<attribute name="decompression" version="0" />
			</rt_info>
			<input>
				<port id="0" precision="FP16">
					<dim>1</dim>
					<dim>320</dim>
					<dim>1</dim>
					<dim>1</dim>
				</port>
			</input>
			<output>
				<port id="1" precision="FP32">
					<dim>1</dim>
					<dim>320</dim>
					<dim>1</dim>
					<dim>1</dim>
				</port>
			</output>
		</layer>
		<layer id="145" name="/down_blocks.0/resnets.0/norm1/Mul" type="Multiply" version="opset1">
			<data auto_broadcast="numpy" />
			<input>
				<port id="0" precision="FP32">
					<dim>2</dim>
					<dim>320</dim>
					<dim>64</dim>
					<dim>64</dim>
				</port>
				<port id="1" precision="FP32">
					<dim>1</dim>
					<dim>320</dim>
					<dim>1</dim>
					<dim>1</dim>
				</port>
			</input>
			<output>
				<port id="2" precision="FP32" names="/down_blocks.0/resnets.0/norm1/Mul_output_0">
					<dim>2</dim>
					<dim>320</dim>
					<dim>64</dim>
					<dim>64</dim>
				</port>
			</output>
		</layer>
		<layer id="146" name="Constant_86874_compressed" type="Const" version="opset1">
			<data element_type="f16" shape="1, 320, 1, 1" offset="298912" size="640" />
			<output>
				<port id="0" precision="FP16">
					<dim>1</dim>
					<dim>320</dim>
					<dim>1</dim>
					<dim>1</dim>
				</port>
			</output>
		</layer>
		<layer id="147" name="Constant_86874" type="Convert" version="opset1">
			<data destination_type="f32" />
			<rt_info>
				<attribute name="decompression" version="0" />
			</rt_info>
			<input>
				<port id="0" precision="FP16">
					<dim>1</dim>
					<dim>320</dim>
					<dim>1</dim>
					<dim>1</dim>
				</port>
			</input>
			<output>
				<port id="1" precision="FP32">
					<dim>1</dim>
					<dim>320</dim>
					<dim>1</dim>
					<dim>1</dim>
				</port>
			</output>
		</layer>
		<layer id="148" name="/down_blocks.0/resnets.0/norm1/Add" type="Add" version="opset1">
			<data auto_broadcast="numpy" />
			<input>
				<port id="0" precision="FP32">
					<dim>2</dim>
					<dim>320</dim>
					<dim>64</dim>
					<dim>64</dim>
				</port>
				<port id="1" precision="FP32">
					<dim>1</dim>
					<dim>320</dim>
					<dim>1</dim>
					<dim>1</dim>
				</port>
			</input>
			<output>
				<port id="2" precision="FP32" names="/down_blocks.0/resnets.0/norm1/Add_output_0">
					<dim>2</dim>
					<dim>320</dim>
					<dim>64</dim>
					<dim>64</dim>
				</port>
			</output>
		</layer>
		<layer id="149" name="/down_blocks.0/resnets.0/nonlinearity/Mul" type="Swish" version="opset4">
			<input>
				<port id="0" precision="FP32">
					<dim>2</dim>
					<dim>320</dim>
					<dim>64</dim>
					<dim>64</dim>
				</port>
			</input>
			<output>
				<port id="1" precision="FP32" names="/down_blocks.0/resnets.0/nonlinearity/Mul_output_0">
					<dim>2</dim>
					<dim>320</dim>
					<dim>64</dim>
					<dim>64</dim>
				</port>
			</output>
		</layer>
		<layer id="150" name="down_blocks.0.resnets.0.conv1.weight_compressed" type="Const" version="opset1">
			<data element_type="f16" shape="320, 320, 3, 3" offset="299552" size="1843200" />
			<output>
				<port id="0" precision="FP16">
					<dim>320</dim>
					<dim>320</dim>
					<dim>3</dim>
					<dim>3</dim>
				</port>
			</output>
		</layer>
		<layer id="151" name="down_blocks.0.resnets.0.conv1.weight" type="Convert" version="opset1">
			<data destination_type="f32" />
			<rt_info>
				<attribute name="decompression" version="0" />
			</rt_info>
			<input>
				<port id="0" precision="FP16">
					<dim>320</dim>
					<dim>320</dim>
					<dim>3</dim>
					<dim>3</dim>
				</port>
			</input>
			<output>
				<port id="1" precision="FP32" names="down_blocks.0.resnets.0.conv1.weight">
					<dim>320</dim>
					<dim>320</dim>
					<dim>3</dim>
					<dim>3</dim>
				</port>
			</output>
		</layer>
		<layer id="152" name="/down_blocks.0/resnets.0/conv1/Conv/WithoutBiases" type="Convolution" version="opset1">
			<data strides="1, 1" dilations="1, 1" pads_begin="1, 1" pads_end="1, 1" auto_pad="explicit" />
			<input>
				<port id="0" precision="FP32">
					<dim>2</dim>
					<dim>320</dim>
					<dim>64</dim>
					<dim>64</dim>
				</port>
				<port id="1" precision="FP32">
					<dim>320</dim>
					<dim>320</dim>
					<dim>3</dim>
					<dim>3</dim>
				</port>
			</input>
			<output>
				<port id="2" precision="FP32">
					<dim>2</dim>
					<dim>320</dim>
					<dim>64</dim>
					<dim>64</dim>
				</port>
			</output>
		</layer>
		<layer id="153" name="Reshape_13680_compressed" type="Const" version="opset1">
			<data element_type="f16" shape="1, 320, 1, 1" offset="2142752" size="640" />
			<output>
				<port id="0" precision="FP16">
					<dim>1</dim>
					<dim>320</dim>
					<dim>1</dim>
					<dim>1</dim>
				</port>
			</output>
		</layer>
		<layer id="154" name="Reshape_13680" type="Convert" version="opset1">
			<data destination_type="f32" />
			<rt_info>
				<attribute name="decompression" version="0" />
			</rt_info>
			<input>
				<port id="0" precision="FP16">
					<dim>1</dim>
					<dim>320</dim>
					<dim>1</dim>
					<dim>1</dim>
				</port>
			</input>
			<output>
				<port id="1" precision="FP32">
					<dim>1</dim>
					<dim>320</dim>
					<dim>1</dim>
					<dim>1</dim>
				</port>
			</output>
		</layer>
		<layer id="155" name="/down_blocks.0/resnets.0/conv1/Conv" type="Add" version="opset1">
			<data auto_broadcast="numpy" />
			<input>
				<port id="0" precision="FP32">
					<dim>2</dim>
					<dim>320</dim>
					<dim>64</dim>
					<dim>64</dim>
				</port>
				<port id="1" precision="FP32">
					<dim>1</dim>
					<dim>320</dim>
					<dim>1</dim>
					<dim>1</dim>
				</port>
			</input>
			<output>
				<port id="2" precision="FP32" names="/down_blocks.0/resnets.0/conv1/Conv_output_0">
					<dim>2</dim>
					<dim>320</dim>
					<dim>64</dim>
					<dim>64</dim>
				</port>
			</output>
		</layer>
		<layer id="156" name="/Constant" type="Const" version="opset1">
			<data element_type="i64" shape="1" offset="2143392" size="8" />
			<output>
				<port id="0" precision="I64" names="/Constant_output_0">
					<dim>1</dim>
				</port>
			</output>
		</layer>
		<layer id="157" name="/Unsqueeze" type="Unsqueeze" version="opset1">
			<input>
				<port id="0" precision="FP64" />
				<port id="1" precision="I64">
					<dim>1</dim>
				</port>
			</input>
			<output>
				<port id="2" precision="FP64" names="/Cast_output_0,/Unsqueeze_output_0">
					<dim>1</dim>
				</port>
			</output>
		</layer>
		<layer id="158" name="/Where" type="Const" version="opset1">
			<data element_type="i64" shape="1" offset="298264" size="8" />
			<output>
				<port id="0" precision="I64" names="/Where_output_0">
					<dim>1</dim>
				</port>
			</output>
		</layer>
		<layer id="159" name="/Expand" type="Broadcast" version="opset3">
			<data mode="bidirectional" />
			<input>
				<port id="0" precision="FP64">
					<dim>1</dim>
				</port>
				<port id="1" precision="I64">
					<dim>1</dim>
				</port>
			</input>
			<output>
				<port id="2" precision="FP64" names="/Expand_output_0">
					<dim>2</dim>
				</port>
			</output>
		</layer>
		<layer id="160" name="/time_proj/Constant" type="Const" version="opset1">
			<data element_type="i64" shape="1" offset="2143400" size="8" />
			<output>
				<port id="0" precision="I64" names="/time_proj/Constant_output_0">
					<dim>1</dim>
				</port>
			</output>
		</layer>
		<layer id="161" name="/time_proj/Unsqueeze" type="Unsqueeze" version="opset1">
			<input>
				<port id="0" precision="FP64">
					<dim>2</dim>
				</port>
				<port id="1" precision="I64">
					<dim>1</dim>
				</port>
			</input>
			<output>
				<port id="2" precision="FP64" names="/time_proj/Unsqueeze_output_0">
					<dim>2</dim>
					<dim>1</dim>
				</port>
			</output>
		</layer>
		<layer id="162" name="/time_proj/Cast" type="Convert" version="opset1">
			<data destination_type="f32" />
			<input>
				<port id="0" precision="FP64">
					<dim>2</dim>
					<dim>1</dim>
				</port>
			</input>
			<output>
				<port id="1" precision="FP32" names="/time_proj/Cast_output_0">
					<dim>2</dim>
					<dim>1</dim>
				</port>
			</output>
		</layer>
		<layer id="163" name="/time_proj/Constant_1_compressed" type="Const" version="opset1">
			<data element_type="f16" shape="1, 160" offset="2143408" size="320" />
			<output>
				<port id="0" precision="FP16">
					<dim>1</dim>
					<dim>160</dim>
				</port>
			</output>
		</layer>
		<layer id="164" name="/time_proj/Constant_1" type="Convert" version="opset1">
			<data destination_type="f32" />
			<rt_info>
				<attribute name="decompression" version="0" />
			</rt_info>
			<input>
				<port id="0" precision="FP16">
					<dim>1</dim>
					<dim>160</dim>
				</port>
			</input>
			<output>
				<port id="1" precision="FP32" names="/time_proj/Constant_1_output_0">
					<dim>1</dim>
					<dim>160</dim>
				</port>
			</output>
		</layer>
		<layer id="165" name="/time_proj/Mul" type="Multiply" version="opset1">
			<data auto_broadcast="numpy" />
			<input>
				<port id="0" precision="FP32">
					<dim>2</dim>
					<dim>1</dim>
				</port>
				<port id="1" precision="FP32">
					<dim>1</dim>
					<dim>160</dim>
				</port>
			</input>
			<output>
				<port id="2" precision="FP32" names="/time_proj/Mul_output_0">
					<dim>2</dim>
					<dim>160</dim>
				</port>
			</output>
		</layer>
		<layer id="166" name="/time_proj/Sin" type="Sin" version="opset1">
			<input>
				<port id="0" precision="FP32">
					<dim>2</dim>
					<dim>160</dim>
				</port>
			</input>
			<output>
				<port id="1" precision="FP32" names="/time_proj/Sin_output_0">
					<dim>2</dim>
					<dim>160</dim>
				</port>
			</output>
		</layer>
		<layer id="167" name="/time_proj/Cos" type="Cos" version="opset1">
			<input>
				<port id="0" precision="FP32">
					<dim>2</dim>
					<dim>160</dim>
				</port>
			</input>
			<output>
				<port id="1" precision="FP32" names="/time_proj/Cos_output_0">
					<dim>2</dim>
					<dim>160</dim>
				</port>
			</output>
		</layer>
		<layer id="168" name="/time_proj/Concat" type="Concat" version="opset1">
			<data axis="-1" />
			<input>
				<port id="0" precision="FP32">
					<dim>2</dim>
					<dim>160</dim>
				</port>
				<port id="1" precision="FP32">
					<dim>2</dim>
					<dim>160</dim>
				</port>
			</input>
			<output>
				<port id="2" precision="FP32" names="/time_proj/Concat_output_0">
					<dim>2</dim>
					<dim>320</dim>
				</port>
			</output>
		</layer>
		<layer id="169" name="Constant_76184" type="Const" version="opset1">
			<data element_type="i64" shape="2" offset="2143728" size="16" />
			<output>
				<port id="0" precision="I64">
					<dim>2</dim>
				</port>
			</output>
		</layer>
		<layer id="170" name="Constant_76187" type="Const" version="opset1">
			<data element_type="i64" shape="2" offset="2143744" size="16" />
			<output>
				<port id="0" precision="I64">
					<dim>2</dim>
				</port>
			</output>
		</layer>
		<layer id="171" name="Constant_76190" type="Const" version="opset1">
			<data element_type="i64" shape="2" offset="2143760" size="16" />
			<output>
				<port id="0" precision="I64">
					<dim>2</dim>
				</port>
			</output>
		</layer>
		<layer id="172" name="/time_proj/Slice" type="StridedSlice" version="opset1">
			<data begin_mask="1, 0" end_mask="1, 0" new_axis_mask="" shrink_axis_mask="" ellipsis_mask="" />
			<input>
				<port id="0" precision="FP32">
					<dim>2</dim>
					<dim>320</dim>
				</port>
				<port id="1" precision="I64">
					<dim>2</dim>
				</port>
				<port id="2" precision="I64">
					<dim>2</dim>
				</port>
				<port id="3" precision="I64">
					<dim>2</dim>
				</port>
			</input>
			<output>
				<port id="4" precision="FP32" names="/time_proj/Slice_output_0">
					<dim>2</dim>
					<dim>160</dim>
				</port>
			</output>
		</layer>
		<layer id="173" name="Constant_76196" type="Const" version="opset1">
			<data element_type="i64" shape="2" offset="2143776" size="16" />
			<output>
				<port id="0" precision="I64">
					<dim>2</dim>
				</port>
			</output>
		</layer>
		<layer id="174" name="Constant_76199" type="Const" version="opset1">
			<data element_type="i64" shape="2" offset="2143728" size="16" />
			<output>
				<port id="0" precision="I64">
					<dim>2</dim>
				</port>
			</output>
		</layer>
		<layer id="175" name="Constant_76202" type="Const" version="opset1">
			<data element_type="i64" shape="2" offset="2143760" size="16" />
			<output>
				<port id="0" precision="I64">
					<dim>2</dim>
				</port>
			</output>
		</layer>
		<layer id="176" name="/time_proj/Slice_1" type="StridedSlice" version="opset1">
			<data begin_mask="1, 0" end_mask="1, 0" new_axis_mask="" shrink_axis_mask="" ellipsis_mask="" />
			<input>
				<port id="0" precision="FP32">
					<dim>2</dim>
					<dim>320</dim>
				</port>
				<port id="1" precision="I64">
					<dim>2</dim>
				</port>
				<port id="2" precision="I64">
					<dim>2</dim>
				</port>
				<port id="3" precision="I64">
					<dim>2</dim>
				</port>
			</input>
			<output>
				<port id="4" precision="FP32" names="/time_proj/Slice_1_output_0">
					<dim>2</dim>
					<dim>160</dim>
				</port>
			</output>
		</layer>
		<layer id="177" name="/time_proj/Concat_1" type="Concat" version="opset1">
			<data axis="-1" />
			<input>
				<port id="0" precision="FP32">
					<dim>2</dim>
					<dim>160</dim>
				</port>
				<port id="1" precision="FP32">
					<dim>2</dim>
					<dim>160</dim>
				</port>
			</input>
			<output>
				<port id="2" precision="FP32" names="/Cast_1_output_0,/time_proj/Concat_1_output_0">
					<dim>2</dim>
					<dim>320</dim>
				</port>
			</output>
		</layer>
		<layer id="178" name="time_embedding.linear_1.weight_compressed" type="Const" version="opset1">
			<data element_type="f16" shape="1280, 320" offset="2143792" size="819200" />
			<output>
				<port id="0" precision="FP16">
					<dim>1280</dim>
					<dim>320</dim>
				</port>
			</output>
		</layer>
		<layer id="179" name="time_embedding.linear_1.weight" type="Convert" version="opset1">
			<data destination_type="f32" />
			<rt_info>
				<attribute name="decompression" version="0" />
			</rt_info>
			<input>
				<port id="0" precision="FP16">
					<dim>1280</dim>
					<dim>320</dim>
				</port>
			</input>
			<output>
				<port id="1" precision="FP32" names="time_embedding.linear_1.weight">
					<dim>1280</dim>
					<dim>320</dim>
				</port>
			</output>
		</layer>
		<layer id="180" name="/time_embedding/linear_1/Gemm/WithoutBiases" type="MatMul" version="opset1">
			<data transpose_a="false" transpose_b="true" />
			<input>
				<port id="0" precision="FP32">
					<dim>2</dim>
					<dim>320</dim>
				</port>
				<port id="1" precision="FP32">
					<dim>1280</dim>
					<dim>320</dim>
				</port>
			</input>
			<output>
				<port id="2" precision="FP32">
					<dim>2</dim>
					<dim>1280</dim>
				</port>
			</output>
		</layer>
		<layer id="181" name="Constant_86875_compressed" type="Const" version="opset1">
			<data element_type="f16" shape="1, 1280" offset="2962992" size="2560" />
			<output>
				<port id="0" precision="FP16">
					<dim>1</dim>
					<dim>1280</dim>
				</port>
			</output>
		</layer>
		<layer id="182" name="Constant_86875" type="Convert" version="opset1">
			<data destination_type="f32" />
			<rt_info>
				<attribute name="decompression" version="0" />
			</rt_info>
			<input>
				<port id="0" precision="FP16">
					<dim>1</dim>
					<dim>1280</dim>
				</port>
			</input>
			<output>
				<port id="1" precision="FP32">
					<dim>1</dim>
					<dim>1280</dim>
				</port>
			</output>
		</layer>
		<layer id="183" name="/time_embedding/linear_1/Gemm" type="Add" version="opset1">
			<data auto_broadcast="numpy" />
			<input>
				<port id="0" precision="FP32">
					<dim>2</dim>
					<dim>1280</dim>
				</port>
				<port id="1" precision="FP32">
					<dim>1</dim>
					<dim>1280</dim>
				</port>
			</input>
			<output>
				<port id="2" precision="FP32" names="/time_embedding/linear_1/Gemm_output_0">
					<dim>2</dim>
					<dim>1280</dim>
				</port>
			</output>
		</layer>
		<layer id="184" name="/time_embedding/act/Mul" type="Swish" version="opset4">
			<input>
				<port id="0" precision="FP32">
					<dim>2</dim>
					<dim>1280</dim>
				</port>
			</input>
			<output>
				<port id="1" precision="FP32" names="/time_embedding/act/Mul_output_0">
					<dim>2</dim>
					<dim>1280</dim>
				</port>
			</output>
		</layer>
		<layer id="185" name="time_embedding.linear_2.weight_compressed" type="Const" version="opset1">
			<data element_type="f16" shape="1280, 1280" offset="2965552" size="3276800" />
			<output>
				<port id="0" precision="FP16">
					<dim>1280</dim>
					<dim>1280</dim>
				</port>
			</output>
		</layer>
		<layer id="186" name="time_embedding.linear_2.weight" type="Convert" version="opset1">
			<data destination_type="f32" />
			<rt_info>
				<attribute name="decompression" version="0" />
			</rt_info>
			<input>
				<port id="0" precision="FP16">
					<dim>1280</dim>
					<dim>1280</dim>
				</port>
			</input>
			<output>
				<port id="1" precision="FP32" names="time_embedding.linear_2.weight">
					<dim>1280</dim>
					<dim>1280</dim>
				</port>
			</output>
		</layer>
		<layer id="187" name="/time_embedding/linear_2/Gemm/WithoutBiases" type="MatMul" version="opset1">
			<data transpose_a="false" transpose_b="true" />
			<input>
				<port id="0" precision="FP32">
					<dim>2</dim>
					<dim>1280</dim>
				</port>
				<port id="1" precision="FP32">
					<dim>1280</dim>
					<dim>1280</dim>
				</port>
			</input>
			<output>
				<port id="2" precision="FP32">
					<dim>2</dim>
					<dim>1280</dim>
				</port>
			</output>
		</layer>
		<layer id="188" name="Constant_86876_compressed" type="Const" version="opset1">
			<data element_type="f16" shape="1, 1280" offset="6242352" size="2560" />
			<output>
				<port id="0" precision="FP16">
					<dim>1</dim>
					<dim>1280</dim>
				</port>
			</output>
		</layer>
		<layer id="189" name="Constant_86876" type="Convert" version="opset1">
			<data destination_type="f32" />
			<rt_info>
				<attribute name="decompression" version="0" />
			</rt_info>
			<input>
				<port id="0" precision="FP16">
					<dim>1</dim>
					<dim>1280</dim>
				</port>
			</input>
			<output>
				<port id="1" precision="FP32">
					<dim>1</dim>
					<dim>1280</dim>
				</port>
			</output>
		</layer>
		<layer id="190" name="/time_embedding/linear_2/Gemm" type="Add" version="opset1">
			<data auto_broadcast="numpy" />
			<input>
				<port id="0" precision="FP32">
					<dim>2</dim>
					<dim>1280</dim>
				</port>
				<port id="1" precision="FP32">
					<dim>1</dim>
					<dim>1280</dim>
				</port>
			</input>
			<output>
				<port id="2" precision="FP32" names="/time_embedding/linear_2/Gemm_output_0">
					<dim>2</dim>
					<dim>1280</dim>
				</port>
			</output>
		</layer>
		<layer id="191" name="/down_blocks.0/resnets.0/nonlinearity_1/Mul" type="Swish" version="opset4">
			<input>
				<port id="0" precision="FP32">
					<dim>2</dim>
					<dim>1280</dim>
				</port>
			</input>
			<output>
				<port id="1" precision="FP32" names="/down_blocks.0/resnets.0/nonlinearity_1/Mul_output_0">
					<dim>2</dim>
					<dim>1280</dim>
				</port>
			</output>
		</layer>
		<layer id="192" name="down_blocks.0.resnets.0.time_emb_proj.weight_compressed" type="Const" version="opset1">
			<data element_type="f16" shape="320, 1280" offset="6244912" size="819200" />
			<output>
				<port id="0" precision="FP16">
					<dim>320</dim>
					<dim>1280</dim>
				</port>
			</output>
		</layer>
		<layer id="193" name="down_blocks.0.resnets.0.time_emb_proj.weight" type="Convert" version="opset1">
			<data destination_type="f32" />
			<rt_info>
				<attribute name="decompression" version="0" />
			</rt_info>
			<input>
				<port id="0" precision="FP16">
					<dim>320</dim>
					<dim>1280</dim>
				</port>
			</input>
			<output>
				<port id="1" precision="FP32" names="down_blocks.0.resnets.0.time_emb_proj.weight">
					<dim>320</dim>
					<dim>1280</dim>
				</port>
			</output>
		</layer>
		<layer id="194" name="/down_blocks.0/resnets.0/time_emb_proj/Gemm/WithoutBiases" type="MatMul" version="opset1">
			<data transpose_a="false" transpose_b="true" />
			<input>
				<port id="0" precision="FP32">
					<dim>2</dim>
					<dim>1280</dim>
				</port>
				<port id="1" precision="FP32">
					<dim>320</dim>
					<dim>1280</dim>
				</port>
			</input>
			<output>
				<port id="2" precision="FP32">
					<dim>2</dim>
					<dim>320</dim>
				</port>
			</output>
		</layer>
		<layer id="195" name="Constant_86877_compressed" type="Const" version="opset1">
			<data element_type="f16" shape="1, 320" offset="7064112" size="640" />
			<output>
				<port id="0" precision="FP16">
					<dim>1</dim>
					<dim>320</dim>
				</port>
			</output>
		</layer>
		<layer id="196" name="Constant_86877" type="Convert" version="opset1">
			<data destination_type="f32" />
			<rt_info>
				<attribute name="decompression" version="0" />
			</rt_info>
			<input>
				<port id="0" precision="FP16">
					<dim>1</dim>
					<dim>320</dim>
				</port>
			</input>
			<output>
				<port id="1" precision="FP32">
					<dim>1</dim>
					<dim>320</dim>
				</port>
			</output>
		</layer>
		<layer id="197" name="/down_blocks.0/resnets.0/time_emb_proj/Gemm" type="Add" version="opset1">
			<data auto_broadcast="numpy" />
			<input>
				<port id="0" precision="FP32">
					<dim>2</dim>
					<dim>320</dim>
				</port>
				<port id="1" precision="FP32">
					<dim>1</dim>
					<dim>320</dim>
				</port>
			</input>
			<output>
				<port id="2" precision="FP32" names="/down_blocks.0/resnets.0/time_emb_proj/Gemm_output_0">
					<dim>2</dim>
					<dim>320</dim>
				</port>
			</output>
		</layer>
		<layer id="198" name="/down_blocks.0/resnets.0/Constant" type="Const" version="opset1">
			<data element_type="i64" shape="1" offset="298264" size="8" />
			<output>
				<port id="0" precision="I64" names="/down_blocks.0/resnets.0/Constant_output_0">
					<dim>1</dim>
				</port>
			</output>
		</layer>
		<layer id="199" name="/down_blocks.0/resnets.0/Unsqueeze" type="Unsqueeze" version="opset1">
			<input>
				<port id="0" precision="FP32">
					<dim>2</dim>
					<dim>320</dim>
				</port>
				<port id="1" precision="I64">
					<dim>1</dim>
				</port>
			</input>
			<output>
				<port id="2" precision="FP32" names="/down_blocks.0/resnets.0/Unsqueeze_output_0">
					<dim>2</dim>
					<dim>320</dim>
					<dim>1</dim>
				</port>
			</output>
		</layer>
		<layer id="200" name="/down_blocks.0/resnets.0/Constant_1" type="Const" version="opset1">
			<data element_type="i64" shape="1" offset="7064752" size="8" />
			<output>
				<port id="0" precision="I64" names="/down_blocks.0/resnets.0/Constant_1_output_0">
					<dim>1</dim>
				</port>
			</output>
		</layer>
		<layer id="201" name="/down_blocks.0/resnets.0/Unsqueeze_1" type="Unsqueeze" version="opset1">
			<input>
				<port id="0" precision="FP32">
					<dim>2</dim>
					<dim>320</dim>
					<dim>1</dim>
				</port>
				<port id="1" precision="I64">
					<dim>1</dim>
				</port>
			</input>
			<output>
				<port id="2" precision="FP32" names="/down_blocks.0/resnets.0/Unsqueeze_1_output_0">
					<dim>2</dim>
					<dim>320</dim>
					<dim>1</dim>
					<dim>1</dim>
				</port>
			</output>
		</layer>
		<layer id="202" name="/down_blocks.0/resnets.0/Add" type="Add" version="opset1">
			<data auto_broadcast="numpy" />
			<input>
				<port id="0" precision="FP32">
					<dim>2</dim>
					<dim>320</dim>
					<dim>64</dim>
					<dim>64</dim>
				</port>
				<port id="1" precision="FP32">
					<dim>2</dim>
					<dim>320</dim>
					<dim>1</dim>
					<dim>1</dim>
				</port>
			</input>
			<output>
				<port id="2" precision="FP32" names="/down_blocks.0/resnets.0/Add_output_0">
					<dim>2</dim>
					<dim>320</dim>
					<dim>64</dim>
					<dim>64</dim>
				</port>
			</output>
		</layer>
		<layer id="203" name="/down_blocks.0/resnets.0/norm2/Constant" type="Const" version="opset1">
			<data element_type="i64" shape="3" offset="298240" size="24" />
			<output>
				<port id="0" precision="I64" names="/down_blocks.0/resnets.0/norm2/Constant_output_0">
					<dim>3</dim>
				</port>
			</output>
		</layer>
		<layer id="204" name="/down_blocks.0/resnets.0/norm2/Reshape" type="Reshape" version="opset1">
			<data special_zero="true" />
			<input>
				<port id="0" precision="FP32">
					<dim>2</dim>
					<dim>320</dim>
					<dim>64</dim>
					<dim>64</dim>
				</port>
				<port id="1" precision="I64">
					<dim>3</dim>
				</port>
			</input>
			<output>
				<port id="2" precision="FP32" names="/down_blocks.0/resnets.0/norm2/Reshape_output_0">
					<dim>2</dim>
					<dim>32</dim>
					<dim>40960</dim>
				</port>
			</output>
		</layer>
		<layer id="205" name="Constant_13730" type="Const" version="opset1">
			<data element_type="i64" shape="1" offset="298264" size="8" />
			<output>
				<port id="0" precision="I64">
					<dim>1</dim>
				</port>
			</output>
		</layer>
		<layer id="206" name="MVN_13731" type="MVN" version="opset6">
			<data eps="9.9999997473787516e-06" normalize_variance="true" eps_mode="INSIDE_SQRT" />
			<input>
				<port id="0" precision="FP32">
					<dim>2</dim>
					<dim>32</dim>
					<dim>40960</dim>
				</port>
				<port id="1" precision="I64">
					<dim>1</dim>
				</port>
			</input>
			<output>
				<port id="2" precision="FP32" names="/down_blocks.0/resnets.0/norm2/InstanceNormalization_output_0">
					<dim>2</dim>
					<dim>32</dim>
					<dim>40960</dim>
				</port>
			</output>
		</layer>
		<layer id="207" name="/down_blocks.0/resnets.0/norm2/Shape" type="ShapeOf" version="opset3">
			<data output_type="i64" />
			<input>
				<port id="0" precision="FP32">
					<dim>2</dim>
					<dim>320</dim>
					<dim>64</dim>
					<dim>64</dim>
				</port>
			</input>
			<output>
				<port id="1" precision="I64" names="/down_blocks.0/resnets.0/norm2/Shape_output_0">
					<dim>4</dim>
				</port>
			</output>
		</layer>
		<layer id="208" name="/down_blocks.0/resnets.0/norm2/Reshape_1" type="Reshape" version="opset1">
			<data special_zero="true" />
			<input>
				<port id="0" precision="FP32">
					<dim>2</dim>
					<dim>32</dim>
					<dim>40960</dim>
				</port>
				<port id="1" precision="I64">
					<dim>4</dim>
				</port>
			</input>
			<output>
				<port id="2" precision="FP32" names="/down_blocks.0/resnets.0/norm2/Reshape_1_output_0">
					<dim>2</dim>
					<dim>320</dim>
					<dim>64</dim>
					<dim>64</dim>
				</port>
			</output>
		</layer>
		<layer id="209" name="Constant_86878_compressed" type="Const" version="opset1">
			<data element_type="f16" shape="1, 320, 1, 1" offset="7064760" size="640" />
			<output>
				<port id="0" precision="FP16">
					<dim>1</dim>
					<dim>320</dim>
					<dim>1</dim>
					<dim>1</dim>
				</port>
			</output>
		</layer>
		<layer id="210" name="Constant_86878" type="Convert" version="opset1">
			<data destination_type="f32" />
			<rt_info>
				<attribute name="decompression" version="0" />
			</rt_info>
			<input>
				<port id="0" precision="FP16">
					<dim>1</dim>
					<dim>320</dim>
					<dim>1</dim>
					<dim>1</dim>
				</port>
			</input>
			<output>
				<port id="1" precision="FP32">
					<dim>1</dim>
					<dim>320</dim>
					<dim>1</dim>
					<dim>1</dim>
				</port>
			</output>
		</layer>
		<layer id="211" name="/down_blocks.0/resnets.0/norm2/Mul" type="Multiply" version="opset1">
			<data auto_broadcast="numpy" />
			<input>
				<port id="0" precision="FP32">
					<dim>2</dim>
					<dim>320</dim>
					<dim>64</dim>
					<dim>64</dim>
				</port>
				<port id="1" precision="FP32">
					<dim>1</dim>
					<dim>320</dim>
					<dim>1</dim>
					<dim>1</dim>
				</port>
			</input>
			<output>
				<port id="2" precision="FP32" names="/down_blocks.0/resnets.0/norm2/Mul_output_0">
					<dim>2</dim>
					<dim>320</dim>
					<dim>64</dim>
					<dim>64</dim>
				</port>
			</output>
		</layer>
		<layer id="212" name="Constant_86879_compressed" type="Const" version="opset1">
			<data element_type="f16" shape="1, 320, 1, 1" offset="7065400" size="640" />
			<output>
				<port id="0" precision="FP16">
					<dim>1</dim>
					<dim>320</dim>
					<dim>1</dim>
					<dim>1</dim>
				</port>
			</output>
		</layer>
		<layer id="213" name="Constant_86879" type="Convert" version="opset1">
			<data destination_type="f32" />
			<rt_info>
				<attribute name="decompression" version="0" />
			</rt_info>
			<input>
				<port id="0" precision="FP16">
					<dim>1</dim>
					<dim>320</dim>
					<dim>1</dim>
					<dim>1</dim>
				</port>
			</input>
			<output>
				<port id="1" precision="FP32">
					<dim>1</dim>
					<dim>320</dim>
					<dim>1</dim>
					<dim>1</dim>
				</port>
			</output>
		</layer>
		<layer id="214" name="/down_blocks.0/resnets.0/norm2/Add" type="Add" version="opset1">
			<data auto_broadcast="numpy" />
			<input>
				<port id="0" precision="FP32">
					<dim>2</dim>
					<dim>320</dim>
					<dim>64</dim>
					<dim>64</dim>
				</port>
				<port id="1" precision="FP32">
					<dim>1</dim>
					<dim>320</dim>
					<dim>1</dim>
					<dim>1</dim>
				</port>
			</input>
			<output>
				<port id="2" precision="FP32" names="/down_blocks.0/resnets.0/norm2/Add_output_0">
					<dim>2</dim>
					<dim>320</dim>
					<dim>64</dim>
					<dim>64</dim>
				</port>
			</output>
		</layer>
		<layer id="215" name="/down_blocks.0/resnets.0/nonlinearity_2/Mul" type="Swish" version="opset4">
			<input>
				<port id="0" precision="FP32">
					<dim>2</dim>
					<dim>320</dim>
					<dim>64</dim>
					<dim>64</dim>
				</port>
			</input>
			<output>
				<port id="1" precision="FP32" names="/down_blocks.0/resnets.0/nonlinearity_2/Mul_output_0">
					<dim>2</dim>
					<dim>320</dim>
					<dim>64</dim>
					<dim>64</dim>
				</port>
			</output>
		</layer>
		<layer id="216" name="down_blocks.0.resnets.0.conv2.weight_compressed" type="Const" version="opset1">
			<data element_type="f16" shape="320, 320, 3, 3" offset="7066040" size="1843200" />
			<output>
				<port id="0" precision="FP16">
					<dim>320</dim>
					<dim>320</dim>
					<dim>3</dim>
					<dim>3</dim>
				</port>
			</output>
		</layer>
		<layer id="217" name="down_blocks.0.resnets.0.conv2.weight" type="Convert" version="opset1">
			<data destination_type="f32" />
			<rt_info>
				<attribute name="decompression" version="0" />
			</rt_info>
			<input>
				<port id="0" precision="FP16">
					<dim>320</dim>
					<dim>320</dim>
					<dim>3</dim>
					<dim>3</dim>
				</port>
			</input>
			<output>
				<port id="1" precision="FP32" names="down_blocks.0.resnets.0.conv2.weight">
					<dim>320</dim>
					<dim>320</dim>
					<dim>3</dim>
					<dim>3</dim>
				</port>
			</output>
		</layer>
		<layer id="218" name="/down_blocks.0/resnets.0/conv2/Conv/WithoutBiases" type="Convolution" version="opset1">
			<data strides="1, 1" dilations="1, 1" pads_begin="1, 1" pads_end="1, 1" auto_pad="explicit" />
			<input>
				<port id="0" precision="FP32">
					<dim>2</dim>
					<dim>320</dim>
					<dim>64</dim>
					<dim>64</dim>
				</port>
				<port id="1" precision="FP32">
					<dim>320</dim>
					<dim>320</dim>
					<dim>3</dim>
					<dim>3</dim>
				</port>
			</input>
			<output>
				<port id="2" precision="FP32">
					<dim>2</dim>
					<dim>320</dim>
					<dim>64</dim>
					<dim>64</dim>
				</port>
			</output>
		</layer>
		<layer id="219" name="Reshape_13855_compressed" type="Const" version="opset1">
			<data element_type="f16" shape="1, 320, 1, 1" offset="8909240" size="640" />
			<output>
				<port id="0" precision="FP16">
					<dim>1</dim>
					<dim>320</dim>
					<dim>1</dim>
					<dim>1</dim>
				</port>
			</output>
		</layer>
		<layer id="220" name="Reshape_13855" type="Convert" version="opset1">
			<data destination_type="f32" />
			<rt_info>
				<attribute name="decompression" version="0" />
			</rt_info>
			<input>
				<port id="0" precision="FP16">
					<dim>1</dim>
					<dim>320</dim>
					<dim>1</dim>
					<dim>1</dim>
				</port>
			</input>
			<output>
				<port id="1" precision="FP32">
					<dim>1</dim>
					<dim>320</dim>
					<dim>1</dim>
					<dim>1</dim>
				</port>
			</output>
		</layer>
		<layer id="221" name="/down_blocks.0/resnets.0/conv2/Conv" type="Add" version="opset1">
			<data auto_broadcast="numpy" />
			<input>
				<port id="0" precision="FP32">
					<dim>2</dim>
					<dim>320</dim>
					<dim>64</dim>
					<dim>64</dim>
				</port>
				<port id="1" precision="FP32">
					<dim>1</dim>
					<dim>320</dim>
					<dim>1</dim>
					<dim>1</dim>
				</port>
			</input>
			<output>
				<port id="2" precision="FP32" names="/down_blocks.0/resnets.0/conv2/Conv_output_0">
					<dim>2</dim>
					<dim>320</dim>
					<dim>64</dim>
					<dim>64</dim>
				</port>
			</output>
		</layer>
		<layer id="222" name="/down_blocks.0/resnets.0/Add_1" type="Add" version="opset1">
			<data auto_broadcast="numpy" />
			<input>
				<port id="0" precision="FP32">
					<dim>2</dim>
					<dim>320</dim>
					<dim>64</dim>
					<dim>64</dim>
				</port>
				<port id="1" precision="FP32">
					<dim>2</dim>
					<dim>320</dim>
					<dim>64</dim>
					<dim>64</dim>
				</port>
			</input>
			<output>
				<port id="2" precision="FP32" names="/down_blocks.0/resnets.0/Add_1_output_0,/down_blocks.0/resnets.0/Div_output_0">
					<dim>2</dim>
					<dim>320</dim>
					<dim>64</dim>
					<dim>64</dim>
				</port>
			</output>
		</layer>
		<layer id="223" name="/down_blocks.0/attentions.0/norm/Constant" type="Const" version="opset1">
			<data element_type="i64" shape="3" offset="298240" size="24" />
			<output>
				<port id="0" precision="I64" names="/down_blocks.0/attentions.0/norm/Constant_output_0">
					<dim>3</dim>
				</port>
			</output>
		</layer>
		<layer id="224" name="/down_blocks.0/attentions.0/norm/Reshape" type="Reshape" version="opset1">
			<data special_zero="true" />
			<input>
				<port id="0" precision="FP32">
					<dim>2</dim>
					<dim>320</dim>
					<dim>64</dim>
					<dim>64</dim>
				</port>
				<port id="1" precision="I64">
					<dim>3</dim>
				</port>
			</input>
			<output>
				<port id="2" precision="FP32" names="/down_blocks.0/attentions.0/norm/Reshape_output_0">
					<dim>2</dim>
					<dim>32</dim>
					<dim>40960</dim>
				</port>
			</output>
		</layer>
		<layer id="225" name="Constant_13895" type="Const" version="opset1">
			<data element_type="i64" shape="1" offset="298264" size="8" />
			<output>
				<port id="0" precision="I64">
					<dim>1</dim>
				</port>
			</output>
		</layer>
		<layer id="226" name="MVN_13896" type="MVN" version="opset6">
			<data eps="9.9999999747524271e-07" normalize_variance="true" eps_mode="INSIDE_SQRT" />
			<input>
				<port id="0" precision="FP32">
					<dim>2</dim>
					<dim>32</dim>
					<dim>40960</dim>
				</port>
				<port id="1" precision="I64">
					<dim>1</dim>
				</port>
			</input>
			<output>
				<port id="2" precision="FP32" names="/down_blocks.0/attentions.0/norm/InstanceNormalization_output_0">
					<dim>2</dim>
					<dim>32</dim>
					<dim>40960</dim>
				</port>
			</output>
		</layer>
		<layer id="227" name="/down_blocks.0/attentions.0/norm/Shape" type="ShapeOf" version="opset3">
			<data output_type="i64" />
			<input>
				<port id="0" precision="FP32">
					<dim>2</dim>
					<dim>320</dim>
					<dim>64</dim>
					<dim>64</dim>
				</port>
			</input>
			<output>
				<port id="1" precision="I64" names="/down_blocks.0/attentions.0/norm/Shape_output_0">
					<dim>4</dim>
				</port>
			</output>
		</layer>
		<layer id="228" name="/down_blocks.0/attentions.0/norm/Reshape_1" type="Reshape" version="opset1">
			<data special_zero="true" />
			<input>
				<port id="0" precision="FP32">
					<dim>2</dim>
					<dim>32</dim>
					<dim>40960</dim>
				</port>
				<port id="1" precision="I64">
					<dim>4</dim>
				</port>
			</input>
			<output>
				<port id="2" precision="FP32" names="/down_blocks.0/attentions.0/norm/Reshape_1_output_0">
					<dim>2</dim>
					<dim>320</dim>
					<dim>64</dim>
					<dim>64</dim>
				</port>
			</output>
		</layer>
		<layer id="229" name="Constant_86880_compressed" type="Const" version="opset1">
			<data element_type="f16" shape="1, 320, 1, 1" offset="8909880" size="640" />
			<output>
				<port id="0" precision="FP16">
					<dim>1</dim>
					<dim>320</dim>
					<dim>1</dim>
					<dim>1</dim>
				</port>
			</output>
		</layer>
		<layer id="230" name="Constant_86880" type="Convert" version="opset1">
			<data destination_type="f32" />
			<rt_info>
				<attribute name="decompression" version="0" />
			</rt_info>
			<input>
				<port id="0" precision="FP16">
					<dim>1</dim>
					<dim>320</dim>
					<dim>1</dim>
					<dim>1</dim>
				</port>
			</input>
			<output>
				<port id="1" precision="FP32">
					<dim>1</dim>
					<dim>320</dim>
					<dim>1</dim>
					<dim>1</dim>
				</port>
			</output>
		</layer>
		<layer id="231" name="/down_blocks.0/attentions.0/norm/Mul" type="Multiply" version="opset1">
			<data auto_broadcast="numpy" />
			<input>
				<port id="0" precision="FP32">
					<dim>2</dim>
					<dim>320</dim>
					<dim>64</dim>
					<dim>64</dim>
				</port>
				<port id="1" precision="FP32">
					<dim>1</dim>
					<dim>320</dim>
					<dim>1</dim>
					<dim>1</dim>
				</port>
			</input>
			<output>
				<port id="2" precision="FP32" names="/down_blocks.0/attentions.0/norm/Mul_output_0">
					<dim>2</dim>
					<dim>320</dim>
					<dim>64</dim>
					<dim>64</dim>
				</port>
			</output>
		</layer>
		<layer id="232" name="Constant_86881_compressed" type="Const" version="opset1">
			<data element_type="f16" shape="1, 320, 1, 1" offset="8910520" size="640" />
			<output>
				<port id="0" precision="FP16">
					<dim>1</dim>
					<dim>320</dim>
					<dim>1</dim>
					<dim>1</dim>
				</port>
			</output>
		</layer>
		<layer id="233" name="Constant_86881" type="Convert" version="opset1">
			<data destination_type="f32" />
			<rt_info>
				<attribute name="decompression" version="0" />
			</rt_info>
			<input>
				<port id="0" precision="FP16">
					<dim>1</dim>
					<dim>320</dim>
					<dim>1</dim>
					<dim>1</dim>
				</port>
			</input>
			<output>
				<port id="1" precision="FP32">
					<dim>1</dim>
					<dim>320</dim>
					<dim>1</dim>
					<dim>1</dim>
				</port>
			</output>
		</layer>
		<layer id="234" name="/down_blocks.0/attentions.0/norm/Add" type="Add" version="opset1">
			<data auto_broadcast="numpy" />
			<input>
				<port id="0" precision="FP32">
					<dim>2</dim>
					<dim>320</dim>
					<dim>64</dim>
					<dim>64</dim>
				</port>
				<port id="1" precision="FP32">
					<dim>1</dim>
					<dim>320</dim>
					<dim>1</dim>
					<dim>1</dim>
				</port>
			</input>
			<output>
				<port id="2" precision="FP32" names="/down_blocks.0/attentions.0/norm/Add_output_0">
					<dim>2</dim>
					<dim>320</dim>
					<dim>64</dim>
					<dim>64</dim>
				</port>
			</output>
		</layer>
		<layer id="235" name="down_blocks.0.attentions.0.proj_in.weight_compressed" type="Const" version="opset1">
			<data element_type="f16" shape="320, 320, 1, 1" offset="8911160" size="204800" />
			<output>
				<port id="0" precision="FP16">
					<dim>320</dim>
					<dim>320</dim>
					<dim>1</dim>
					<dim>1</dim>
				</port>
			</output>
		</layer>
		<layer id="236" name="down_blocks.0.attentions.0.proj_in.weight" type="Convert" version="opset1">
			<data destination_type="f32" />
			<rt_info>
				<attribute name="decompression" version="0" />
			</rt_info>
			<input>
				<port id="0" precision="FP16">
					<dim>320</dim>
					<dim>320</dim>
					<dim>1</dim>
					<dim>1</dim>
				</port>
			</input>
			<output>
				<port id="1" precision="FP32" names="down_blocks.0.attentions.0.proj_in.weight">
					<dim>320</dim>
					<dim>320</dim>
					<dim>1</dim>
					<dim>1</dim>
				</port>
			</output>
		</layer>
		<layer id="237" name="/down_blocks.0/attentions.0/proj_in/Conv/WithoutBiases" type="Convolution" version="opset1">
			<data strides="1, 1" dilations="1, 1" pads_begin="0, 0" pads_end="0, 0" auto_pad="explicit" />
			<input>
				<port id="0" precision="FP32">
					<dim>2</dim>
					<dim>320</dim>
					<dim>64</dim>
					<dim>64</dim>
				</port>
				<port id="1" precision="FP32">
					<dim>320</dim>
					<dim>320</dim>
					<dim>1</dim>
					<dim>1</dim>
				</port>
			</input>
			<output>
				<port id="2" precision="FP32">
					<dim>2</dim>
					<dim>320</dim>
					<dim>64</dim>
					<dim>64</dim>
				</port>
			</output>
		</layer>
		<layer id="238" name="Reshape_14018_compressed" type="Const" version="opset1">
			<data element_type="f16" shape="1, 320, 1, 1" offset="9115960" size="640" />
			<output>
				<port id="0" precision="FP16">
					<dim>1</dim>
					<dim>320</dim>
					<dim>1</dim>
					<dim>1</dim>
				</port>
			</output>
		</layer>
		<layer id="239" name="Reshape_14018" type="Convert" version="opset1">
			<data destination_type="f32" />
			<rt_info>
				<attribute name="decompression" version="0" />
			</rt_info>
			<input>
				<port id="0" precision="FP16">
					<dim>1</dim>
					<dim>320</dim>
					<dim>1</dim>
					<dim>1</dim>
				</port>
			</input>
			<output>
				<port id="1" precision="FP32">
					<dim>1</dim>
					<dim>320</dim>
					<dim>1</dim>
					<dim>1</dim>
				</port>
			</output>
		</layer>
		<layer id="240" name="/down_blocks.0/attentions.0/proj_in/Conv" type="Add" version="opset1">
			<data auto_broadcast="numpy" />
			<input>
				<port id="0" precision="FP32">
					<dim>2</dim>
					<dim>320</dim>
					<dim>64</dim>
					<dim>64</dim>
				</port>
				<port id="1" precision="FP32">
					<dim>1</dim>
					<dim>320</dim>
					<dim>1</dim>
					<dim>1</dim>
				</port>
			</input>
			<output>
				<port id="2" precision="FP32" names="/down_blocks.0/attentions.0/proj_in/Conv_output_0">
					<dim>2</dim>
					<dim>320</dim>
					<dim>64</dim>
					<dim>64</dim>
				</port>
			</output>
		</layer>
		<layer id="241" name="Constant_14046" type="Const" version="opset1">
			<data element_type="i64" shape="4" offset="9116600" size="32" />
			<output>
				<port id="0" precision="I64">
					<dim>4</dim>
				</port>
			</output>
		</layer>
		<layer id="242" name="/down_blocks.0/attentions.0/Transpose" type="Transpose" version="opset1">
			<input>
				<port id="0" precision="FP32">
					<dim>2</dim>
					<dim>320</dim>
					<dim>64</dim>
					<dim>64</dim>
				</port>
				<port id="1" precision="I64">
					<dim>4</dim>
				</port>
			</input>
			<output>
				<port id="2" precision="FP32" names="/down_blocks.0/attentions.0/Transpose_output_0">
					<dim>2</dim>
					<dim>64</dim>
					<dim>64</dim>
					<dim>320</dim>
				</port>
			</output>
		</layer>
		<layer id="243" name="/down_blocks.0/attentions.0/Constant" type="Const" version="opset1">
			<data element_type="i64" shape="3" offset="9116632" size="24" />
			<output>
				<port id="0" precision="I64" names="/down_blocks.0/attentions.0/Constant_output_0">
					<dim>3</dim>
				</port>
			</output>
		</layer>
		<layer id="244" name="/down_blocks.0/attentions.0/Reshape" type="Reshape" version="opset1">
			<data special_zero="true" />
			<input>
				<port id="0" precision="FP32">
					<dim>2</dim>
					<dim>64</dim>
					<dim>64</dim>
					<dim>320</dim>
				</port>
				<port id="1" precision="I64">
					<dim>3</dim>
				</port>
			</input>
			<output>
				<port id="2" precision="FP32" names="/down_blocks.0/attentions.0/Reshape_output_0">
					<dim>2</dim>
					<dim>4096</dim>
					<dim>320</dim>
				</port>
			</output>
		</layer>
		<layer id="245" name="Constant_14055" type="Const" version="opset1">
			<data element_type="i64" shape="1" offset="9116656" size="8" />
			<output>
				<port id="0" precision="I64">
					<dim>1</dim>
				</port>
			</output>
		</layer>
		<layer id="246" name="/down_blocks.0/attentions.0/transformer_blocks.0/norm1/Div" type="MVN" version="opset6">
			<data eps="9.9999997473787516e-06" normalize_variance="true" eps_mode="INSIDE_SQRT" />
			<input>
				<port id="0" precision="FP32">
					<dim>2</dim>
					<dim>4096</dim>
					<dim>320</dim>
				</port>
				<port id="1" precision="I64">
					<dim>1</dim>
				</port>
			</input>
			<output>
				<port id="2" precision="FP32" names="/down_blocks.0/attentions.0/transformer_blocks.0/norm1/Div_output_0">
					<dim>2</dim>
					<dim>4096</dim>
					<dim>320</dim>
				</port>
			</output>
		</layer>
		<layer id="247" name="Constant_86882_compressed" type="Const" version="opset1">
			<data element_type="f16" shape="1, 1, 320" offset="9116664" size="640" />
			<output>
				<port id="0" precision="FP16">
					<dim>1</dim>
					<dim>1</dim>
					<dim>320</dim>
				</port>
			</output>
		</layer>
		<layer id="248" name="Constant_86882" type="Convert" version="opset1">
			<data destination_type="f32" />
			<rt_info>
				<attribute name="decompression" version="0" />
			</rt_info>
			<input>
				<port id="0" precision="FP16">
					<dim>1</dim>
					<dim>1</dim>
					<dim>320</dim>
				</port>
			</input>
			<output>
				<port id="1" precision="FP32">
					<dim>1</dim>
					<dim>1</dim>
					<dim>320</dim>
				</port>
			</output>
		</layer>
		<layer id="249" name="/down_blocks.0/attentions.0/transformer_blocks.0/norm1/Mul" type="Multiply" version="opset1">
			<data auto_broadcast="numpy" />
			<input>
				<port id="0" precision="FP32">
					<dim>2</dim>
					<dim>4096</dim>
					<dim>320</dim>
				</port>
				<port id="1" precision="FP32">
					<dim>1</dim>
					<dim>1</dim>
					<dim>320</dim>
				</port>
			</input>
			<output>
				<port id="2" precision="FP32" names="/down_blocks.0/attentions.0/transformer_blocks.0/norm1/Mul_output_0">
					<dim>2</dim>
					<dim>4096</dim>
					<dim>320</dim>
				</port>
			</output>
		</layer>
		<layer id="250" name="Constant_86883_compressed" type="Const" version="opset1">
			<data element_type="f16" shape="1, 1, 320" offset="9117304" size="640" />
			<output>
				<port id="0" precision="FP16">
					<dim>1</dim>
					<dim>1</dim>
					<dim>320</dim>
				</port>
			</output>
		</layer>
		<layer id="251" name="Constant_86883" type="Convert" version="opset1">
			<data destination_type="f32" />
			<rt_info>
				<attribute name="decompression" version="0" />
			</rt_info>
			<input>
				<port id="0" precision="FP16">
					<dim>1</dim>
					<dim>1</dim>
					<dim>320</dim>
				</port>
			</input>
			<output>
				<port id="1" precision="FP32">
					<dim>1</dim>
					<dim>1</dim>
					<dim>320</dim>
				</port>
			</output>
		</layer>
		<layer id="252" name="/down_blocks.0/attentions.0/transformer_blocks.0/norm1/Add_1" type="Add" version="opset1">
			<data auto_broadcast="numpy" />
			<input>
				<port id="0" precision="FP32">
					<dim>2</dim>
					<dim>4096</dim>
					<dim>320</dim>
				</port>
				<port id="1" precision="FP32">
					<dim>1</dim>
					<dim>1</dim>
					<dim>320</dim>
				</port>
			</input>
			<output>
				<port id="2" precision="FP32" names="/down_blocks.0/attentions.0/transformer_blocks.0/norm1/Add_1_output_0">
					<dim>2</dim>
					<dim>4096</dim>
					<dim>320</dim>
				</port>
			</output>
		</layer>
		<layer id="253" name="Constant_84954_compressed" type="Const" version="opset1">
			<data element_type="f16" shape="320, 320" offset="9117944" size="204800" />
			<output>
				<port id="0" precision="FP16">
					<dim>320</dim>
					<dim>320</dim>
				</port>
			</output>
		</layer>
		<layer id="254" name="Constant_84954" type="Convert" version="opset1">
			<data destination_type="f32" />
			<rt_info>
				<attribute name="decompression" version="0" />
			</rt_info>
			<input>
				<port id="0" precision="FP16">
					<dim>320</dim>
					<dim>320</dim>
				</port>
			</input>
			<output>
				<port id="1" precision="FP32">
					<dim>320</dim>
					<dim>320</dim>
				</port>
			</output>
		</layer>
		<layer id="255" name="/down_blocks.0/attentions.0/transformer_blocks.0/attn1/to_q/MatMul" type="MatMul" version="opset1">
			<data transpose_a="false" transpose_b="true" />
			<input>
				<port id="0" precision="FP32">
					<dim>2</dim>
					<dim>4096</dim>
					<dim>320</dim>
				</port>
				<port id="1" precision="FP32">
					<dim>320</dim>
					<dim>320</dim>
				</port>
			</input>
			<output>
				<port id="2" precision="FP32" names="/down_blocks.0/attentions.0/transformer_blocks.0/attn1/to_q/MatMul_output_0">
					<dim>2</dim>
					<dim>4096</dim>
					<dim>320</dim>
				</port>
			</output>
		</layer>
		<layer id="256" name="/down_blocks.0/attentions.0/transformer_blocks.0/attn1/Constant" type="Const" version="opset1">
			<data element_type="i64" shape="4" offset="9322744" size="32" />
			<output>
				<port id="0" precision="I64" names="/down_blocks.0/attentions.0/transformer_blocks.0/attn1/Constant_output_0">
					<dim>4</dim>
				</port>
			</output>
		</layer>
		<layer id="257" name="/down_blocks.0/attentions.0/transformer_blocks.0/attn1/Reshape" type="Reshape" version="opset1">
			<data special_zero="true" />
			<input>
				<port id="0" precision="FP32">
					<dim>2</dim>
					<dim>4096</dim>
					<dim>320</dim>
				</port>
				<port id="1" precision="I64">
					<dim>4</dim>
				</port>
			</input>
			<output>
				<port id="2" precision="FP32" names="/down_blocks.0/attentions.0/transformer_blocks.0/attn1/Reshape_output_0">
					<dim>2</dim>
					<dim>4096</dim>
					<dim>8</dim>
					<dim>40</dim>
				</port>
			</output>
		</layer>
		<layer id="258" name="Constant_14078" type="Const" version="opset1">
			<data element_type="i64" shape="4" offset="9322776" size="32" />
			<output>
				<port id="0" precision="I64">
					<dim>4</dim>
				</port>
			</output>
		</layer>
		<layer id="259" name="/down_blocks.0/attentions.0/transformer_blocks.0/attn1/Transpose" type="Transpose" version="opset1">
			<input>
				<port id="0" precision="FP32">
					<dim>2</dim>
					<dim>4096</dim>
					<dim>8</dim>
					<dim>40</dim>
				</port>
				<port id="1" precision="I64">
					<dim>4</dim>
				</port>
			</input>
			<output>
				<port id="2" precision="FP32" names="/down_blocks.0/attentions.0/transformer_blocks.0/attn1/Transpose_output_0">
					<dim>2</dim>
					<dim>8</dim>
					<dim>4096</dim>
					<dim>40</dim>
				</port>
			</output>
		</layer>
		<layer id="260" name="/down_blocks.0/attentions.0/transformer_blocks.0/attn1/Constant_1" type="Const" version="opset1">
			<data element_type="i64" shape="3" offset="9322808" size="24" />
			<output>
				<port id="0" precision="I64" names="/down_blocks.0/attentions.0/transformer_blocks.0/attn1/Constant_1_output_0">
					<dim>3</dim>
				</port>
			</output>
		</layer>
		<layer id="261" name="/down_blocks.0/attentions.0/transformer_blocks.0/attn1/Reshape_1" type="Reshape" version="opset1">
			<data special_zero="true" />
			<input>
				<port id="0" precision="FP32">
					<dim>2</dim>
					<dim>8</dim>
					<dim>4096</dim>
					<dim>40</dim>
				</port>
				<port id="1" precision="I64">
					<dim>3</dim>
				</port>
			</input>
			<output>
				<port id="2" precision="FP32" names="/down_blocks.0/attentions.0/transformer_blocks.0/attn1/Reshape_1_output_0">
					<dim>16</dim>
					<dim>4096</dim>
					<dim>40</dim>
				</port>
			</output>
		</layer>
		<layer id="262" name="Constant_84961_compressed" type="Const" version="opset1">
			<data element_type="f16" shape="320, 320" offset="9322832" size="204800" />
			<output>
				<port id="0" precision="FP16">
					<dim>320</dim>
					<dim>320</dim>
				</port>
			</output>
		</layer>
		<layer id="263" name="Constant_84961" type="Convert" version="opset1">
			<data destination_type="f32" />
			<rt_info>
				<attribute name="decompression" version="0" />
			</rt_info>
			<input>
				<port id="0" precision="FP16">
					<dim>320</dim>
					<dim>320</dim>
				</port>
			</input>
			<output>
				<port id="1" precision="FP32">
					<dim>320</dim>
					<dim>320</dim>
				</port>
			</output>
		</layer>
		<layer id="264" name="/down_blocks.0/attentions.0/transformer_blocks.0/attn1/to_k/MatMul" type="MatMul" version="opset1">
			<data transpose_a="false" transpose_b="true" />
			<input>
				<port id="0" precision="FP32">
					<dim>2</dim>
					<dim>4096</dim>
					<dim>320</dim>
				</port>
				<port id="1" precision="FP32">
					<dim>320</dim>
					<dim>320</dim>
				</port>
			</input>
			<output>
				<port id="2" precision="FP32" names="/down_blocks.0/attentions.0/transformer_blocks.0/attn1/to_k/MatMul_output_0">
					<dim>2</dim>
					<dim>4096</dim>
					<dim>320</dim>
				</port>
			</output>
		</layer>
		<layer id="265" name="/down_blocks.0/attentions.0/transformer_blocks.0/attn1/Constant_2" type="Const" version="opset1">
			<data element_type="i64" shape="4" offset="9322744" size="32" />
			<output>
				<port id="0" precision="I64" names="/down_blocks.0/attentions.0/transformer_blocks.0/attn1/Constant_2_output_0">
					<dim>4</dim>
				</port>
			</output>
		</layer>
		<layer id="266" name="/down_blocks.0/attentions.0/transformer_blocks.0/attn1/Reshape_2" type="Reshape" version="opset1">
			<data special_zero="true" />
			<input>
				<port id="0" precision="FP32">
					<dim>2</dim>
					<dim>4096</dim>
					<dim>320</dim>
				</port>
				<port id="1" precision="I64">
					<dim>4</dim>
				</port>
			</input>
			<output>
				<port id="2" precision="FP32" names="/down_blocks.0/attentions.0/transformer_blocks.0/attn1/Reshape_2_output_0">
					<dim>2</dim>
					<dim>4096</dim>
					<dim>8</dim>
					<dim>40</dim>
				</port>
			</output>
		</layer>
		<layer id="267" name="Constant_14094" type="Const" version="opset1">
			<data element_type="i64" shape="4" offset="9322776" size="32" />
			<output>
				<port id="0" precision="I64">
					<dim>4</dim>
				</port>
			</output>
		</layer>
		<layer id="268" name="/down_blocks.0/attentions.0/transformer_blocks.0/attn1/Transpose_1" type="Transpose" version="opset1">
			<input>
				<port id="0" precision="FP32">
					<dim>2</dim>
					<dim>4096</dim>
					<dim>8</dim>
					<dim>40</dim>
				</port>
				<port id="1" precision="I64">
					<dim>4</dim>
				</port>
			</input>
			<output>
				<port id="2" precision="FP32" names="/down_blocks.0/attentions.0/transformer_blocks.0/attn1/Transpose_1_output_0">
					<dim>2</dim>
					<dim>8</dim>
					<dim>4096</dim>
					<dim>40</dim>
				</port>
			</output>
		</layer>
		<layer id="269" name="/down_blocks.0/attentions.0/transformer_blocks.0/attn1/Constant_3" type="Const" version="opset1">
			<data element_type="i64" shape="3" offset="9322808" size="24" />
			<output>
				<port id="0" precision="I64" names="/down_blocks.0/attentions.0/transformer_blocks.0/attn1/Constant_3_output_0">
					<dim>3</dim>
				</port>
			</output>
		</layer>
		<layer id="270" name="/down_blocks.0/attentions.0/transformer_blocks.0/attn1/Reshape_3" type="Reshape" version="opset1">
			<data special_zero="true" />
			<input>
				<port id="0" precision="FP32">
					<dim>2</dim>
					<dim>8</dim>
					<dim>4096</dim>
					<dim>40</dim>
				</port>
				<port id="1" precision="I64">
					<dim>3</dim>
				</port>
			</input>
			<output>
				<port id="2" precision="FP32" names="/down_blocks.0/attentions.0/transformer_blocks.0/attn1/Reshape_3_output_0">
					<dim>16</dim>
					<dim>4096</dim>
					<dim>40</dim>
				</port>
			</output>
		</layer>
		<layer id="271" name="Constant_86884_compressed" type="Const" version="opset1">
			<data element_type="f16" shape="1, 1, 1" offset="9527632" size="2" />
			<output>
				<port id="0" precision="FP16">
					<dim>1</dim>
					<dim>1</dim>
					<dim>1</dim>
				</port>
			</output>
		</layer>
		<layer id="272" name="Constant_86884" type="Convert" version="opset1">
			<data destination_type="f32" />
			<rt_info>
				<attribute name="decompression" version="0" />
			</rt_info>
			<input>
				<port id="0" precision="FP16">
					<dim>1</dim>
					<dim>1</dim>
					<dim>1</dim>
				</port>
			</input>
			<output>
				<port id="1" precision="FP32">
					<dim>1</dim>
					<dim>1</dim>
					<dim>1</dim>
				</port>
			</output>
		</layer>
		<layer id="273" name="Multiply_86175" type="Multiply" version="opset1">
			<data auto_broadcast="numpy" />
			<input>
				<port id="0" precision="FP32">
					<dim>16</dim>
					<dim>4096</dim>
					<dim>40</dim>
				</port>
				<port id="1" precision="FP32">
					<dim>1</dim>
					<dim>1</dim>
					<dim>1</dim>
				</port>
			</input>
			<output>
				<port id="2" precision="FP32">
					<dim>16</dim>
					<dim>4096</dim>
					<dim>40</dim>
				</port>
			</output>
		</layer>
		<layer id="274" name="/down_blocks.0/attentions.0/transformer_blocks.0/attn1/Mul" type="MatMul" version="opset1">
			<data transpose_a="false" transpose_b="true" />
			<input>
				<port id="0" precision="FP32">
					<dim>16</dim>
					<dim>4096</dim>
					<dim>40</dim>
				</port>
				<port id="1" precision="FP32">
					<dim>16</dim>
					<dim>4096</dim>
					<dim>40</dim>
				</port>
			</input>
			<output>
				<port id="2" precision="FP32" names="/down_blocks.0/attentions.0/transformer_blocks.0/attn1/Add_output_0,/down_blocks.0/attentions.0/transformer_blocks.0/attn1/Mul_output_0">
					<dim>16</dim>
					<dim>4096</dim>
					<dim>4096</dim>
				</port>
			</output>
		</layer>
		<layer id="275" name="/down_blocks.0/attentions.0/transformer_blocks.0/attn1/Softmax" type="SoftMax" version="opset8">
			<data axis="-1" />
			<input>
				<port id="0" precision="FP32">
					<dim>16</dim>
					<dim>4096</dim>
					<dim>4096</dim>
				</port>
			</input>
			<output>
				<port id="1" precision="FP32" names="/down_blocks.0/attentions.0/transformer_blocks.0/attn1/Cast_output_0,/down_blocks.0/attentions.0/transformer_blocks.0/attn1/Softmax_output_0">
					<dim>16</dim>
					<dim>4096</dim>
					<dim>4096</dim>
				</port>
			</output>
		</layer>
		<layer id="276" name="Constant_84968_compressed" type="Const" version="opset1">
			<data element_type="f16" shape="320, 320" offset="9527634" size="204800" />
			<output>
				<port id="0" precision="FP16">
					<dim>320</dim>
					<dim>320</dim>
				</port>
			</output>
		</layer>
		<layer id="277" name="Constant_84968" type="Convert" version="opset1">
			<data destination_type="f32" />
			<rt_info>
				<attribute name="decompression" version="0" />
			</rt_info>
			<input>
				<port id="0" precision="FP16">
					<dim>320</dim>
					<dim>320</dim>
				</port>
			</input>
			<output>
				<port id="1" precision="FP32">
					<dim>320</dim>
					<dim>320</dim>
				</port>
			</output>
		</layer>
		<layer id="278" name="/down_blocks.0/attentions.0/transformer_blocks.0/attn1/to_v/MatMul" type="MatMul" version="opset1">
			<data transpose_a="false" transpose_b="true" />
			<input>
				<port id="0" precision="FP32">
					<dim>2</dim>
					<dim>4096</dim>
					<dim>320</dim>
				</port>
				<port id="1" precision="FP32">
					<dim>320</dim>
					<dim>320</dim>
				</port>
			</input>
			<output>
				<port id="2" precision="FP32" names="/down_blocks.0/attentions.0/transformer_blocks.0/attn1/to_v/MatMul_output_0">
					<dim>2</dim>
					<dim>4096</dim>
					<dim>320</dim>
				</port>
			</output>
		</layer>
		<layer id="279" name="/down_blocks.0/attentions.0/transformer_blocks.0/attn1/Constant_4" type="Const" version="opset1">
			<data element_type="i64" shape="4" offset="9322744" size="32" />
			<output>
				<port id="0" precision="I64" names="/down_blocks.0/attentions.0/transformer_blocks.0/attn1/Constant_4_output_0">
					<dim>4</dim>
				</port>
			</output>
		</layer>
		<layer id="280" name="/down_blocks.0/attentions.0/transformer_blocks.0/attn1/Reshape_4" type="Reshape" version="opset1">
			<data special_zero="true" />
			<input>
				<port id="0" precision="FP32">
					<dim>2</dim>
					<dim>4096</dim>
					<dim>320</dim>
				</port>
				<port id="1" precision="I64">
					<dim>4</dim>
				</port>
			</input>
			<output>
				<port id="2" precision="FP32" names="/down_blocks.0/attentions.0/transformer_blocks.0/attn1/Reshape_4_output_0">
					<dim>2</dim>
					<dim>4096</dim>
					<dim>8</dim>
					<dim>40</dim>
				</port>
			</output>
		</layer>
		<layer id="281" name="Constant_14110" type="Const" version="opset1">
			<data element_type="i64" shape="4" offset="9322776" size="32" />
			<output>
				<port id="0" precision="I64">
					<dim>4</dim>
				</port>
			</output>
		</layer>
		<layer id="282" name="/down_blocks.0/attentions.0/transformer_blocks.0/attn1/Transpose_2" type="Transpose" version="opset1">
			<input>
				<port id="0" precision="FP32">
					<dim>2</dim>
					<dim>4096</dim>
					<dim>8</dim>
					<dim>40</dim>
				</port>
				<port id="1" precision="I64">
					<dim>4</dim>
				</port>
			</input>
			<output>
				<port id="2" precision="FP32" names="/down_blocks.0/attentions.0/transformer_blocks.0/attn1/Transpose_2_output_0">
					<dim>2</dim>
					<dim>8</dim>
					<dim>4096</dim>
					<dim>40</dim>
				</port>
			</output>
		</layer>
		<layer id="283" name="/down_blocks.0/attentions.0/transformer_blocks.0/attn1/Constant_5" type="Const" version="opset1">
			<data element_type="i64" shape="3" offset="9322808" size="24" />
			<output>
				<port id="0" precision="I64" names="/down_blocks.0/attentions.0/transformer_blocks.0/attn1/Constant_5_output_0">
					<dim>3</dim>
				</port>
			</output>
		</layer>
		<layer id="284" name="/down_blocks.0/attentions.0/transformer_blocks.0/attn1/Reshape_5" type="Reshape" version="opset1">
			<data special_zero="true" />
			<input>
				<port id="0" precision="FP32">
					<dim>2</dim>
					<dim>8</dim>
					<dim>4096</dim>
					<dim>40</dim>
				</port>
				<port id="1" precision="I64">
					<dim>3</dim>
				</port>
			</input>
			<output>
				<port id="2" precision="FP32" names="/down_blocks.0/attentions.0/transformer_blocks.0/attn1/Reshape_5_output_0">
					<dim>16</dim>
					<dim>4096</dim>
					<dim>40</dim>
				</port>
			</output>
		</layer>
		<layer id="285" name="/down_blocks.0/attentions.0/transformer_blocks.0/attn1/MatMul_1" type="MatMul" version="opset1">
			<data transpose_a="false" transpose_b="false" />
			<input>
				<port id="0" precision="FP32">
					<dim>16</dim>
					<dim>4096</dim>
					<dim>4096</dim>
				</port>
				<port id="1" precision="FP32">
					<dim>16</dim>
					<dim>4096</dim>
					<dim>40</dim>
				</port>
			</input>
			<output>
				<port id="2" precision="FP32" names="/down_blocks.0/attentions.0/transformer_blocks.0/attn1/MatMul_1_output_0">
					<dim>16</dim>
					<dim>4096</dim>
					<dim>40</dim>
				</port>
			</output>
		</layer>
		<layer id="286" name="/down_blocks.0/attentions.0/transformer_blocks.0/attn1/Constant_8" type="Const" version="opset1">
			<data element_type="i64" shape="4" offset="9732434" size="32" />
			<output>
				<port id="0" precision="I64" names="/down_blocks.0/attentions.0/transformer_blocks.0/attn1/Constant_8_output_0">
					<dim>4</dim>
				</port>
			</output>
		</layer>
		<layer id="287" name="/down_blocks.0/attentions.0/transformer_blocks.0/attn1/Reshape_6" type="Reshape" version="opset1">
			<data special_zero="true" />
			<input>
				<port id="0" precision="FP32">
					<dim>16</dim>
					<dim>4096</dim>
					<dim>40</dim>
				</port>
				<port id="1" precision="I64">
					<dim>4</dim>
				</port>
			</input>
			<output>
				<port id="2" precision="FP32" names="/down_blocks.0/attentions.0/transformer_blocks.0/attn1/Reshape_6_output_0">
					<dim>2</dim>
					<dim>8</dim>
					<dim>4096</dim>
					<dim>40</dim>
				</port>
			</output>
		</layer>
		<layer id="288" name="Constant_14136" type="Const" version="opset1">
			<data element_type="i64" shape="4" offset="9322776" size="32" />
			<output>
				<port id="0" precision="I64">
					<dim>4</dim>
				</port>
			</output>
		</layer>
		<layer id="289" name="/down_blocks.0/attentions.0/transformer_blocks.0/attn1/Transpose_4" type="Transpose" version="opset1">
			<input>
				<port id="0" precision="FP32">
					<dim>2</dim>
					<dim>8</dim>
					<dim>4096</dim>
					<dim>40</dim>
				</port>
				<port id="1" precision="I64">
					<dim>4</dim>
				</port>
			</input>
			<output>
				<port id="2" precision="FP32" names="/down_blocks.0/attentions.0/transformer_blocks.0/attn1/Transpose_4_output_0">
					<dim>2</dim>
					<dim>4096</dim>
					<dim>8</dim>
					<dim>40</dim>
				</port>
			</output>
		</layer>
		<layer id="290" name="/down_blocks.0/attentions.0/transformer_blocks.0/attn1/Constant_9" type="Const" version="opset1">
			<data element_type="i64" shape="3" offset="9116632" size="24" />
			<output>
				<port id="0" precision="I64" names="/down_blocks.0/attentions.0/transformer_blocks.0/attn1/Constant_9_output_0">
					<dim>3</dim>
				</port>
			</output>
		</layer>
		<layer id="291" name="/down_blocks.0/attentions.0/transformer_blocks.0/attn1/Reshape_7" type="Reshape" version="opset1">
			<data special_zero="true" />
			<input>
				<port id="0" precision="FP32">
					<dim>2</dim>
					<dim>4096</dim>
					<dim>8</dim>
					<dim>40</dim>
				</port>
				<port id="1" precision="I64">
					<dim>3</dim>
				</port>
			</input>
			<output>
				<port id="2" precision="FP32" names="/down_blocks.0/attentions.0/transformer_blocks.0/attn1/Reshape_7_output_0">
					<dim>2</dim>
					<dim>4096</dim>
					<dim>320</dim>
				</port>
			</output>
		</layer>
		<layer id="292" name="Constant_84975_compressed" type="Const" version="opset1">
			<data element_type="f16" shape="320, 320" offset="9732466" size="204800" />
			<output>
				<port id="0" precision="FP16">
					<dim>320</dim>
					<dim>320</dim>
				</port>
			</output>
		</layer>
		<layer id="293" name="Constant_84975" type="Convert" version="opset1">
			<data destination_type="f32" />
			<rt_info>
				<attribute name="decompression" version="0" />
			</rt_info>
			<input>
				<port id="0" precision="FP16">
					<dim>320</dim>
					<dim>320</dim>
				</port>
			</input>
			<output>
				<port id="1" precision="FP32">
					<dim>320</dim>
					<dim>320</dim>
				</port>
			</output>
		</layer>
		<layer id="294" name="/down_blocks.0/attentions.0/transformer_blocks.0/attn1/to_out.0/MatMul" type="MatMul" version="opset1">
			<data transpose_a="false" transpose_b="true" />
			<input>
				<port id="0" precision="FP32">
					<dim>2</dim>
					<dim>4096</dim>
					<dim>320</dim>
				</port>
				<port id="1" precision="FP32">
					<dim>320</dim>
					<dim>320</dim>
				</port>
			</input>
			<output>
				<port id="2" precision="FP32" names="/down_blocks.0/attentions.0/transformer_blocks.0/attn1/to_out.0/MatMul_output_0">
					<dim>2</dim>
					<dim>4096</dim>
					<dim>320</dim>
				</port>
			</output>
		</layer>
		<layer id="295" name="/down_blocks.0/attentions.0/transformer_blocks.0/attn1/to_out.0/Add" type="Add" version="opset1">
			<data auto_broadcast="numpy" />
			<input>
				<port id="0" precision="FP32">
					<dim>1</dim>
					<dim>1</dim>
					<dim>320</dim>
				</port>
				<port id="1" precision="FP32">
					<dim>2</dim>
					<dim>4096</dim>
					<dim>320</dim>
				</port>
			</input>
			<output>
				<port id="2" precision="FP32" names="/down_blocks.0/attentions.0/transformer_blocks.0/attn1/to_out.0/Add_output_0">
					<dim>2</dim>
					<dim>4096</dim>
					<dim>320</dim>
				</port>
			</output>
		</layer>
		<layer id="296" name="/down_blocks.0/attentions.0/transformer_blocks.0/Add" type="Add" version="opset1">
			<data auto_broadcast="numpy" />
			<input>
				<port id="0" precision="FP32">
					<dim>2</dim>
					<dim>4096</dim>
					<dim>320</dim>
				</port>
				<port id="1" precision="FP32">
					<dim>2</dim>
					<dim>4096</dim>
					<dim>320</dim>
				</port>
			</input>
			<output>
				<port id="2" precision="FP32" names="/down_blocks.0/attentions.0/transformer_blocks.0/Add_output_0">
					<dim>2</dim>
					<dim>4096</dim>
					<dim>320</dim>
				</port>
			</output>
		</layer>
		<layer id="297" name="Constant_14148" type="Const" version="opset1">
			<data element_type="i64" shape="1" offset="9116656" size="8" />
			<output>
				<port id="0" precision="I64">
					<dim>1</dim>
				</port>
			</output>
		</layer>
		<layer id="298" name="/down_blocks.0/attentions.0/transformer_blocks.0/norm2/Div" type="MVN" version="opset6">
			<data eps="9.9999997473787516e-06" normalize_variance="true" eps_mode="INSIDE_SQRT" />
			<input>
				<port id="0" precision="FP32">
					<dim>2</dim>
					<dim>4096</dim>
					<dim>320</dim>
				</port>
				<port id="1" precision="I64">
					<dim>1</dim>
				</port>
			</input>
			<output>
				<port id="2" precision="FP32" names="/down_blocks.0/attentions.0/transformer_blocks.0/norm2/Div_output_0">
					<dim>2</dim>
					<dim>4096</dim>
					<dim>320</dim>
				</port>
			</output>
		</layer>
		<layer id="299" name="Constant_86886_compressed" type="Const" version="opset1">
			<data element_type="f16" shape="1, 1, 320" offset="9937266" size="640" />
			<output>
				<port id="0" precision="FP16">
					<dim>1</dim>
					<dim>1</dim>
					<dim>320</dim>
				</port>
			</output>
		</layer>
		<layer id="300" name="Constant_86886" type="Convert" version="opset1">
			<data destination_type="f32" />
			<rt_info>
				<attribute name="decompression" version="0" />
			</rt_info>
			<input>
				<port id="0" precision="FP16">
					<dim>1</dim>
					<dim>1</dim>
					<dim>320</dim>
				</port>
			</input>
			<output>
				<port id="1" precision="FP32">
					<dim>1</dim>
					<dim>1</dim>
					<dim>320</dim>
				</port>
			</output>
		</layer>
		<layer id="301" name="/down_blocks.0/attentions.0/transformer_blocks.0/norm2/Mul" type="Multiply" version="opset1">
			<data auto_broadcast="numpy" />
			<input>
				<port id="0" precision="FP32">
					<dim>2</dim>
					<dim>4096</dim>
					<dim>320</dim>
				</port>
				<port id="1" precision="FP32">
					<dim>1</dim>
					<dim>1</dim>
					<dim>320</dim>
				</port>
			</input>
			<output>
				<port id="2" precision="FP32" names="/down_blocks.0/attentions.0/transformer_blocks.0/norm2/Mul_output_0">
					<dim>2</dim>
					<dim>4096</dim>
					<dim>320</dim>
				</port>
			</output>
		</layer>
		<layer id="302" name="Constant_86887_compressed" type="Const" version="opset1">
			<data element_type="f16" shape="1, 1, 320" offset="9937906" size="640" />
			<output>
				<port id="0" precision="FP16">
					<dim>1</dim>
					<dim>1</dim>
					<dim>320</dim>
				</port>
			</output>
		</layer>
		<layer id="303" name="Constant_86887" type="Convert" version="opset1">
			<data destination_type="f32" />
			<rt_info>
				<attribute name="decompression" version="0" />
			</rt_info>
			<input>
				<port id="0" precision="FP16">
					<dim>1</dim>
					<dim>1</dim>
					<dim>320</dim>
				</port>
			</input>
			<output>
				<port id="1" precision="FP32">
					<dim>1</dim>
					<dim>1</dim>
					<dim>320</dim>
				</port>
			</output>
		</layer>
		<layer id="304" name="/down_blocks.0/attentions.0/transformer_blocks.0/norm2/Add_1" type="Add" version="opset1">
			<data auto_broadcast="numpy" />
			<input>
				<port id="0" precision="FP32">
					<dim>2</dim>
					<dim>4096</dim>
					<dim>320</dim>
				</port>
				<port id="1" precision="FP32">
					<dim>1</dim>
					<dim>1</dim>
					<dim>320</dim>
				</port>
			</input>
			<output>
				<port id="2" precision="FP32" names="/down_blocks.0/attentions.0/transformer_blocks.0/norm2/Add_1_output_0">
					<dim>2</dim>
					<dim>4096</dim>
					<dim>320</dim>
				</port>
			</output>
		</layer>
		<layer id="305" name="Constant_84983_compressed" type="Const" version="opset1">
			<data element_type="f16" shape="320, 320" offset="9938546" size="204800" />
			<output>
				<port id="0" precision="FP16">
					<dim>320</dim>
					<dim>320</dim>
				</port>
			</output>
		</layer>
		<layer id="306" name="Constant_84983" type="Convert" version="opset1">
			<data destination_type="f32" />
			<rt_info>
				<attribute name="decompression" version="0" />
			</rt_info>
			<input>
				<port id="0" precision="FP16">
					<dim>320</dim>
					<dim>320</dim>
				</port>
			</input>
			<output>
				<port id="1" precision="FP32">
					<dim>320</dim>
					<dim>320</dim>
				</port>
			</output>
		</layer>
		<layer id="307" name="/down_blocks.0/attentions.0/transformer_blocks.0/attn2/to_q/MatMul" type="MatMul" version="opset1">
			<data transpose_a="false" transpose_b="true" />
			<input>
				<port id="0" precision="FP32">
					<dim>2</dim>
					<dim>4096</dim>
					<dim>320</dim>
				</port>
				<port id="1" precision="FP32">
					<dim>320</dim>
					<dim>320</dim>
				</port>
			</input>
			<output>
				<port id="2" precision="FP32" names="/down_blocks.0/attentions.0/transformer_blocks.0/attn2/to_q/MatMul_output_0">
					<dim>2</dim>
					<dim>4096</dim>
					<dim>320</dim>
				</port>
			</output>
		</layer>
		<layer id="308" name="/down_blocks.0/attentions.0/transformer_blocks.0/attn2/Constant" type="Const" version="opset1">
			<data element_type="i64" shape="4" offset="9322744" size="32" />
			<output>
				<port id="0" precision="I64" names="/down_blocks.0/attentions.0/transformer_blocks.0/attn2/Constant_output_0">
					<dim>4</dim>
				</port>
			</output>
		</layer>
		<layer id="309" name="/down_blocks.0/attentions.0/transformer_blocks.0/attn2/Reshape" type="Reshape" version="opset1">
			<data special_zero="true" />
			<input>
				<port id="0" precision="FP32">
					<dim>2</dim>
					<dim>4096</dim>
					<dim>320</dim>
				</port>
				<port id="1" precision="I64">
					<dim>4</dim>
				</port>
			</input>
			<output>
				<port id="2" precision="FP32" names="/down_blocks.0/attentions.0/transformer_blocks.0/attn2/Reshape_output_0">
					<dim>2</dim>
					<dim>4096</dim>
					<dim>8</dim>
					<dim>40</dim>
				</port>
			</output>
		</layer>
		<layer id="310" name="Constant_14171" type="Const" version="opset1">
			<data element_type="i64" shape="4" offset="9322776" size="32" />
			<output>
				<port id="0" precision="I64">
					<dim>4</dim>
				</port>
			</output>
		</layer>
		<layer id="311" name="/down_blocks.0/attentions.0/transformer_blocks.0/attn2/Transpose" type="Transpose" version="opset1">
			<input>
				<port id="0" precision="FP32">
					<dim>2</dim>
					<dim>4096</dim>
					<dim>8</dim>
					<dim>40</dim>
				</port>
				<port id="1" precision="I64">
					<dim>4</dim>
				</port>
			</input>
			<output>
				<port id="2" precision="FP32" names="/down_blocks.0/attentions.0/transformer_blocks.0/attn2/Transpose_output_0">
					<dim>2</dim>
					<dim>8</dim>
					<dim>4096</dim>
					<dim>40</dim>
				</port>
			</output>
		</layer>
		<layer id="312" name="/down_blocks.0/attentions.0/transformer_blocks.0/attn2/Constant_1" type="Const" version="opset1">
			<data element_type="i64" shape="3" offset="9322808" size="24" />
			<output>
				<port id="0" precision="I64" names="/down_blocks.0/attentions.0/transformer_blocks.0/attn2/Constant_1_output_0">
					<dim>3</dim>
				</port>
			</output>
		</layer>
		<layer id="313" name="/down_blocks.0/attentions.0/transformer_blocks.0/attn2/Reshape_1" type="Reshape" version="opset1">
			<data special_zero="true" />
			<input>
				<port id="0" precision="FP32">
					<dim>2</dim>
					<dim>8</dim>
					<dim>4096</dim>
					<dim>40</dim>
				</port>
				<port id="1" precision="I64">
					<dim>3</dim>
				</port>
			</input>
			<output>
				<port id="2" precision="FP32" names="/down_blocks.0/attentions.0/transformer_blocks.0/attn2/Reshape_1_output_0">
					<dim>16</dim>
					<dim>4096</dim>
					<dim>40</dim>
				</port>
			</output>
		</layer>
		<layer id="314" name="Constant_84990_compressed" type="Const" version="opset1">
			<data element_type="f16" shape="320, 768" offset="10143346" size="491520" />
			<output>
				<port id="0" precision="FP16">
					<dim>320</dim>
					<dim>768</dim>
				</port>
			</output>
		</layer>
		<layer id="315" name="Constant_84990" type="Convert" version="opset1">
			<data destination_type="f32" />
			<rt_info>
				<attribute name="decompression" version="0" />
			</rt_info>
			<input>
				<port id="0" precision="FP16">
					<dim>320</dim>
					<dim>768</dim>
				</port>
			</input>
			<output>
				<port id="1" precision="FP32">
					<dim>320</dim>
					<dim>768</dim>
				</port>
			</output>
		</layer>
		<layer id="316" name="/down_blocks.0/attentions.0/transformer_blocks.0/attn2/to_k/MatMul" type="MatMul" version="opset1">
			<data transpose_a="false" transpose_b="true" />
			<input>
				<port id="0" precision="FP32">
					<dim>2</dim>
					<dim>77</dim>
					<dim>768</dim>
				</port>
				<port id="1" precision="FP32">
					<dim>320</dim>
					<dim>768</dim>
				</port>
			</input>
			<output>
				<port id="2" precision="FP32" names="/down_blocks.0/attentions.0/transformer_blocks.0/attn2/to_k/MatMul_output_0">
					<dim>2</dim>
					<dim>77</dim>
					<dim>320</dim>
				</port>
			</output>
		</layer>
		<layer id="317" name="/down_blocks.0/attentions.0/transformer_blocks.0/attn2/Constant_2" type="Const" version="opset1">
			<data element_type="i64" shape="4" offset="10634866" size="32" />
			<output>
				<port id="0" precision="I64" names="/down_blocks.0/attentions.0/transformer_blocks.0/attn2/Constant_2_output_0">
					<dim>4</dim>
				</port>
			</output>
		</layer>
		<layer id="318" name="/down_blocks.0/attentions.0/transformer_blocks.0/attn2/Reshape_2" type="Reshape" version="opset1">
			<data special_zero="true" />
			<input>
				<port id="0" precision="FP32">
					<dim>2</dim>
					<dim>77</dim>
					<dim>320</dim>
				</port>
				<port id="1" precision="I64">
					<dim>4</dim>
				</port>
			</input>
			<output>
				<port id="2" precision="FP32" names="/down_blocks.0/attentions.0/transformer_blocks.0/attn2/Reshape_2_output_0">
					<dim>2</dim>
					<dim>77</dim>
					<dim>8</dim>
					<dim>40</dim>
				</port>
			</output>
		</layer>
		<layer id="319" name="Constant_14187" type="Const" version="opset1">
			<data element_type="i64" shape="4" offset="9322776" size="32" />
			<output>
				<port id="0" precision="I64">
					<dim>4</dim>
				</port>
			</output>
		</layer>
		<layer id="320" name="/down_blocks.0/attentions.0/transformer_blocks.0/attn2/Transpose_1" type="Transpose" version="opset1">
			<input>
				<port id="0" precision="FP32">
					<dim>2</dim>
					<dim>77</dim>
					<dim>8</dim>
					<dim>40</dim>
				</port>
				<port id="1" precision="I64">
					<dim>4</dim>
				</port>
			</input>
			<output>
				<port id="2" precision="FP32" names="/down_blocks.0/attentions.0/transformer_blocks.0/attn2/Transpose_1_output_0">
					<dim>2</dim>
					<dim>8</dim>
					<dim>77</dim>
					<dim>40</dim>
				</port>
			</output>
		</layer>
		<layer id="321" name="/down_blocks.0/attentions.0/transformer_blocks.0/attn2/Constant_3" type="Const" version="opset1">
			<data element_type="i64" shape="3" offset="10634898" size="24" />
			<output>
				<port id="0" precision="I64" names="/down_blocks.0/attentions.0/transformer_blocks.0/attn2/Constant_3_output_0">
					<dim>3</dim>
				</port>
			</output>
		</layer>
		<layer id="322" name="/down_blocks.0/attentions.0/transformer_blocks.0/attn2/Reshape_3" type="Reshape" version="opset1">
			<data special_zero="true" />
			<input>
				<port id="0" precision="FP32">
					<dim>2</dim>
					<dim>8</dim>
					<dim>77</dim>
					<dim>40</dim>
				</port>
				<port id="1" precision="I64">
					<dim>3</dim>
				</port>
			</input>
			<output>
				<port id="2" precision="FP32" names="/down_blocks.0/attentions.0/transformer_blocks.0/attn2/Reshape_3_output_0">
					<dim>16</dim>
					<dim>77</dim>
					<dim>40</dim>
				</port>
			</output>
		</layer>
		<layer id="323" name="Constant_86888_compressed" type="Const" version="opset1">
			<data element_type="f16" shape="1, 1, 1" offset="9527632" size="2" />
			<output>
				<port id="0" precision="FP16">
					<dim>1</dim>
					<dim>1</dim>
					<dim>1</dim>
				</port>
			</output>
		</layer>
		<layer id="324" name="Constant_86888" type="Convert" version="opset1">
			<data destination_type="f32" />
			<rt_info>
				<attribute name="decompression" version="0" />
			</rt_info>
			<input>
				<port id="0" precision="FP16">
					<dim>1</dim>
					<dim>1</dim>
					<dim>1</dim>
				</port>
			</input>
			<output>
				<port id="1" precision="FP32">
					<dim>1</dim>
					<dim>1</dim>
					<dim>1</dim>
				</port>
			</output>
		</layer>
		<layer id="325" name="Multiply_86177" type="Multiply" version="opset1">
			<data auto_broadcast="numpy" />
			<input>
				<port id="0" precision="FP32">
					<dim>16</dim>
					<dim>77</dim>
					<dim>40</dim>
				</port>
				<port id="1" precision="FP32">
					<dim>1</dim>
					<dim>1</dim>
					<dim>1</dim>
				</port>
			</input>
			<output>
				<port id="2" precision="FP32">
					<dim>16</dim>
					<dim>77</dim>
					<dim>40</dim>
				</port>
			</output>
		</layer>
		<layer id="326" name="/down_blocks.0/attentions.0/transformer_blocks.0/attn2/Mul" type="MatMul" version="opset1">
			<data transpose_a="false" transpose_b="true" />
			<input>
				<port id="0" precision="FP32">
					<dim>16</dim>
					<dim>4096</dim>
					<dim>40</dim>
				</port>
				<port id="1" precision="FP32">
					<dim>16</dim>
					<dim>77</dim>
					<dim>40</dim>
				</port>
			</input>
			<output>
				<port id="2" precision="FP32" names="/down_blocks.0/attentions.0/transformer_blocks.0/attn2/Add_output_0,/down_blocks.0/attentions.0/transformer_blocks.0/attn2/Mul_output_0">
					<dim>16</dim>
					<dim>4096</dim>
					<dim>77</dim>
				</port>
			</output>
		</layer>
		<layer id="327" name="/down_blocks.0/attentions.0/transformer_blocks.0/attn2/Softmax" type="SoftMax" version="opset8">
			<data axis="-1" />
			<input>
				<port id="0" precision="FP32">
					<dim>16</dim>
					<dim>4096</dim>
					<dim>77</dim>
				</port>
			</input>
			<output>
				<port id="1" precision="FP32" names="/down_blocks.0/attentions.0/transformer_blocks.0/attn2/Cast_output_0,/down_blocks.0/attentions.0/transformer_blocks.0/attn2/Softmax_output_0">
					<dim>16</dim>
					<dim>4096</dim>
					<dim>77</dim>
				</port>
			</output>
		</layer>
		<layer id="328" name="Constant_84997_compressed" type="Const" version="opset1">
			<data element_type="f16" shape="320, 768" offset="10634922" size="491520" />
			<output>
				<port id="0" precision="FP16">
					<dim>320</dim>
					<dim>768</dim>
				</port>
			</output>
		</layer>
		<layer id="329" name="Constant_84997" type="Convert" version="opset1">
			<data destination_type="f32" />
			<rt_info>
				<attribute name="decompression" version="0" />
			</rt_info>
			<input>
				<port id="0" precision="FP16">
					<dim>320</dim>
					<dim>768</dim>
				</port>
			</input>
			<output>
				<port id="1" precision="FP32">
					<dim>320</dim>
					<dim>768</dim>
				</port>
			</output>
		</layer>
		<layer id="330" name="/down_blocks.0/attentions.0/transformer_blocks.0/attn2/to_v/MatMul" type="MatMul" version="opset1">
			<data transpose_a="false" transpose_b="true" />
			<input>
				<port id="0" precision="FP32">
					<dim>2</dim>
					<dim>77</dim>
					<dim>768</dim>
				</port>
				<port id="1" precision="FP32">
					<dim>320</dim>
					<dim>768</dim>
				</port>
			</input>
			<output>
				<port id="2" precision="FP32" names="/down_blocks.0/attentions.0/transformer_blocks.0/attn2/to_v/MatMul_output_0">
					<dim>2</dim>
					<dim>77</dim>
					<dim>320</dim>
				</port>
			</output>
		</layer>
		<layer id="331" name="/down_blocks.0/attentions.0/transformer_blocks.0/attn2/Constant_4" type="Const" version="opset1">
			<data element_type="i64" shape="4" offset="10634866" size="32" />
			<output>
				<port id="0" precision="I64" names="/down_blocks.0/attentions.0/transformer_blocks.0/attn2/Constant_4_output_0">
					<dim>4</dim>
				</port>
			</output>
		</layer>
		<layer id="332" name="/down_blocks.0/attentions.0/transformer_blocks.0/attn2/Reshape_4" type="Reshape" version="opset1">
			<data special_zero="true" />
			<input>
				<port id="0" precision="FP32">
					<dim>2</dim>
					<dim>77</dim>
					<dim>320</dim>
				</port>
				<port id="1" precision="I64">
					<dim>4</dim>
				</port>
			</input>
			<output>
				<port id="2" precision="FP32" names="/down_blocks.0/attentions.0/transformer_blocks.0/attn2/Reshape_4_output_0">
					<dim>2</dim>
					<dim>77</dim>
					<dim>8</dim>
					<dim>40</dim>
				</port>
			</output>
		</layer>
		<layer id="333" name="Constant_14203" type="Const" version="opset1">
			<data element_type="i64" shape="4" offset="9322776" size="32" />
			<output>
				<port id="0" precision="I64">
					<dim>4</dim>
				</port>
			</output>
		</layer>
		<layer id="334" name="/down_blocks.0/attentions.0/transformer_blocks.0/attn2/Transpose_2" type="Transpose" version="opset1">
			<input>
				<port id="0" precision="FP32">
					<dim>2</dim>
					<dim>77</dim>
					<dim>8</dim>
					<dim>40</dim>
				</port>
				<port id="1" precision="I64">
					<dim>4</dim>
				</port>
			</input>
			<output>
				<port id="2" precision="FP32" names="/down_blocks.0/attentions.0/transformer_blocks.0/attn2/Transpose_2_output_0">
					<dim>2</dim>
					<dim>8</dim>
					<dim>77</dim>
					<dim>40</dim>
				</port>
			</output>
		</layer>
		<layer id="335" name="/down_blocks.0/attentions.0/transformer_blocks.0/attn2/Constant_5" type="Const" version="opset1">
			<data element_type="i64" shape="3" offset="10634898" size="24" />
			<output>
				<port id="0" precision="I64" names="/down_blocks.0/attentions.0/transformer_blocks.0/attn2/Constant_5_output_0">
					<dim>3</dim>
				</port>
			</output>
		</layer>
		<layer id="336" name="/down_blocks.0/attentions.0/transformer_blocks.0/attn2/Reshape_5" type="Reshape" version="opset1">
			<data special_zero="true" />
			<input>
				<port id="0" precision="FP32">
					<dim>2</dim>
					<dim>8</dim>
					<dim>77</dim>
					<dim>40</dim>
				</port>
				<port id="1" precision="I64">
					<dim>3</dim>
				</port>
			</input>
			<output>
				<port id="2" precision="FP32" names="/down_blocks.0/attentions.0/transformer_blocks.0/attn2/Reshape_5_output_0">
					<dim>16</dim>
					<dim>77</dim>
					<dim>40</dim>
				</port>
			</output>
		</layer>
		<layer id="337" name="/down_blocks.0/attentions.0/transformer_blocks.0/attn2/MatMul_1" type="MatMul" version="opset1">
			<data transpose_a="false" transpose_b="false" />
			<input>
				<port id="0" precision="FP32">
					<dim>16</dim>
					<dim>4096</dim>
					<dim>77</dim>
				</port>
				<port id="1" precision="FP32">
					<dim>16</dim>
					<dim>77</dim>
					<dim>40</dim>
				</port>
			</input>
			<output>
				<port id="2" precision="FP32" names="/down_blocks.0/attentions.0/transformer_blocks.0/attn2/MatMul_1_output_0">
					<dim>16</dim>
					<dim>4096</dim>
					<dim>40</dim>
				</port>
			</output>
		</layer>
		<layer id="338" name="/down_blocks.0/attentions.0/transformer_blocks.0/attn2/Constant_8" type="Const" version="opset1">
			<data element_type="i64" shape="4" offset="9732434" size="32" />
			<output>
				<port id="0" precision="I64" names="/down_blocks.0/attentions.0/transformer_blocks.0/attn2/Constant_8_output_0">
					<dim>4</dim>
				</port>
			</output>
		</layer>
		<layer id="339" name="/down_blocks.0/attentions.0/transformer_blocks.0/attn2/Reshape_6" type="Reshape" version="opset1">
			<data special_zero="true" />
			<input>
				<port id="0" precision="FP32">
					<dim>16</dim>
					<dim>4096</dim>
					<dim>40</dim>
				</port>
				<port id="1" precision="I64">
					<dim>4</dim>
				</port>
			</input>
			<output>
				<port id="2" precision="FP32" names="/down_blocks.0/attentions.0/transformer_blocks.0/attn2/Reshape_6_output_0">
					<dim>2</dim>
					<dim>8</dim>
					<dim>4096</dim>
					<dim>40</dim>
				</port>
			</output>
		</layer>
		<layer id="340" name="Constant_14229" type="Const" version="opset1">
			<data element_type="i64" shape="4" offset="9322776" size="32" />
			<output>
				<port id="0" precision="I64">
					<dim>4</dim>
				</port>
			</output>
		</layer>
		<layer id="341" name="/down_blocks.0/attentions.0/transformer_blocks.0/attn2/Transpose_4" type="Transpose" version="opset1">
			<input>
				<port id="0" precision="FP32">
					<dim>2</dim>
					<dim>8</dim>
					<dim>4096</dim>
					<dim>40</dim>
				</port>
				<port id="1" precision="I64">
					<dim>4</dim>
				</port>
			</input>
			<output>
				<port id="2" precision="FP32" names="/down_blocks.0/attentions.0/transformer_blocks.0/attn2/Transpose_4_output_0">
					<dim>2</dim>
					<dim>4096</dim>
					<dim>8</dim>
					<dim>40</dim>
				</port>
			</output>
		</layer>
		<layer id="342" name="/down_blocks.0/attentions.0/transformer_blocks.0/attn2/Constant_9" type="Const" version="opset1">
			<data element_type="i64" shape="3" offset="9116632" size="24" />
			<output>
				<port id="0" precision="I64" names="/down_blocks.0/attentions.0/transformer_blocks.0/attn2/Constant_9_output_0">
					<dim>3</dim>
				</port>
			</output>
		</layer>
		<layer id="343" name="/down_blocks.0/attentions.0/transformer_blocks.0/attn2/Reshape_7" type="Reshape" version="opset1">
			<data special_zero="true" />
			<input>
				<port id="0" precision="FP32">
					<dim>2</dim>
					<dim>4096</dim>
					<dim>8</dim>
					<dim>40</dim>
				</port>
				<port id="1" precision="I64">
					<dim>3</dim>
				</port>
			</input>
			<output>
				<port id="2" precision="FP32" names="/down_blocks.0/attentions.0/transformer_blocks.0/attn2/Reshape_7_output_0">
					<dim>2</dim>
					<dim>4096</dim>
					<dim>320</dim>
				</port>
			</output>
		</layer>
		<layer id="344" name="Constant_85004_compressed" type="Const" version="opset1">
			<data element_type="f16" shape="320, 320" offset="11126442" size="204800" />
			<output>
				<port id="0" precision="FP16">
					<dim>320</dim>
					<dim>320</dim>
				</port>
			</output>
		</layer>
		<layer id="345" name="Constant_85004" type="Convert" version="opset1">
			<data destination_type="f32" />
			<rt_info>
				<attribute name="decompression" version="0" />
			</rt_info>
			<input>
				<port id="0" precision="FP16">
					<dim>320</dim>
					<dim>320</dim>
				</port>
			</input>
			<output>
				<port id="1" precision="FP32">
					<dim>320</dim>
					<dim>320</dim>
				</port>
			</output>
		</layer>
		<layer id="346" name="/down_blocks.0/attentions.0/transformer_blocks.0/attn2/to_out.0/MatMul" type="MatMul" version="opset1">
			<data transpose_a="false" transpose_b="true" />
			<input>
				<port id="0" precision="FP32">
					<dim>2</dim>
					<dim>4096</dim>
					<dim>320</dim>
				</port>
				<port id="1" precision="FP32">
					<dim>320</dim>
					<dim>320</dim>
				</port>
			</input>
			<output>
				<port id="2" precision="FP32" names="/down_blocks.0/attentions.0/transformer_blocks.0/attn2/to_out.0/MatMul_output_0">
					<dim>2</dim>
					<dim>4096</dim>
					<dim>320</dim>
				</port>
			</output>
		</layer>
		<layer id="347" name="/down_blocks.0/attentions.0/transformer_blocks.0/attn2/to_out.0/Add" type="Add" version="opset1">
			<data auto_broadcast="numpy" />
			<input>
				<port id="0" precision="FP32">
					<dim>1</dim>
					<dim>1</dim>
					<dim>320</dim>
				</port>
				<port id="1" precision="FP32">
					<dim>2</dim>
					<dim>4096</dim>
					<dim>320</dim>
				</port>
			</input>
			<output>
				<port id="2" precision="FP32" names="/down_blocks.0/attentions.0/transformer_blocks.0/attn2/to_out.0/Add_output_0">
					<dim>2</dim>
					<dim>4096</dim>
					<dim>320</dim>
				</port>
			</output>
		</layer>
		<layer id="348" name="/down_blocks.0/attentions.0/transformer_blocks.0/Add_1" type="Add" version="opset1">
			<data auto_broadcast="numpy" />
			<input>
				<port id="0" precision="FP32">
					<dim>2</dim>
					<dim>4096</dim>
					<dim>320</dim>
				</port>
				<port id="1" precision="FP32">
					<dim>2</dim>
					<dim>4096</dim>
					<dim>320</dim>
				</port>
			</input>
			<output>
				<port id="2" precision="FP32" names="/down_blocks.0/attentions.0/transformer_blocks.0/Add_1_output_0">
					<dim>2</dim>
					<dim>4096</dim>
					<dim>320</dim>
				</port>
			</output>
		</layer>
		<layer id="349" name="Constant_14241" type="Const" version="opset1">
			<data element_type="i64" shape="1" offset="9116656" size="8" />
			<output>
				<port id="0" precision="I64">
					<dim>1</dim>
				</port>
			</output>
		</layer>
		<layer id="350" name="/down_blocks.0/attentions.0/transformer_blocks.0/norm3/Div" type="MVN" version="opset6">
			<data eps="9.9999997473787516e-06" normalize_variance="true" eps_mode="INSIDE_SQRT" />
			<input>
				<port id="0" precision="FP32">
					<dim>2</dim>
					<dim>4096</dim>
					<dim>320</dim>
				</port>
				<port id="1" precision="I64">
					<dim>1</dim>
				</port>
			</input>
			<output>
				<port id="2" precision="FP32" names="/down_blocks.0/attentions.0/transformer_blocks.0/norm3/Div_output_0">
					<dim>2</dim>
					<dim>4096</dim>
					<dim>320</dim>
				</port>
			</output>
		</layer>
		<layer id="351" name="Constant_86890_compressed" type="Const" version="opset1">
			<data element_type="f16" shape="1, 1, 320" offset="11331242" size="640" />
			<output>
				<port id="0" precision="FP16">
					<dim>1</dim>
					<dim>1</dim>
					<dim>320</dim>
				</port>
			</output>
		</layer>
		<layer id="352" name="Constant_86890" type="Convert" version="opset1">
			<data destination_type="f32" />
			<rt_info>
				<attribute name="decompression" version="0" />
			</rt_info>
			<input>
				<port id="0" precision="FP16">
					<dim>1</dim>
					<dim>1</dim>
					<dim>320</dim>
				</port>
			</input>
			<output>
				<port id="1" precision="FP32">
					<dim>1</dim>
					<dim>1</dim>
					<dim>320</dim>
				</port>
			</output>
		</layer>
		<layer id="353" name="/down_blocks.0/attentions.0/transformer_blocks.0/norm3/Mul" type="Multiply" version="opset1">
			<data auto_broadcast="numpy" />
			<input>
				<port id="0" precision="FP32">
					<dim>2</dim>
					<dim>4096</dim>
					<dim>320</dim>
				</port>
				<port id="1" precision="FP32">
					<dim>1</dim>
					<dim>1</dim>
					<dim>320</dim>
				</port>
			</input>
			<output>
				<port id="2" precision="FP32" names="/down_blocks.0/attentions.0/transformer_blocks.0/norm3/Mul_output_0">
					<dim>2</dim>
					<dim>4096</dim>
					<dim>320</dim>
				</port>
			</output>
		</layer>
		<layer id="354" name="Constant_86891_compressed" type="Const" version="opset1">
			<data element_type="f16" shape="1, 1, 320" offset="11331882" size="640" />
			<output>
				<port id="0" precision="FP16">
					<dim>1</dim>
					<dim>1</dim>
					<dim>320</dim>
				</port>
			</output>
		</layer>
		<layer id="355" name="Constant_86891" type="Convert" version="opset1">
			<data destination_type="f32" />
			<rt_info>
				<attribute name="decompression" version="0" />
			</rt_info>
			<input>
				<port id="0" precision="FP16">
					<dim>1</dim>
					<dim>1</dim>
					<dim>320</dim>
				</port>
			</input>
			<output>
				<port id="1" precision="FP32">
					<dim>1</dim>
					<dim>1</dim>
					<dim>320</dim>
				</port>
			</output>
		</layer>
		<layer id="356" name="/down_blocks.0/attentions.0/transformer_blocks.0/norm3/Add_1" type="Add" version="opset1">
			<data auto_broadcast="numpy" />
			<input>
				<port id="0" precision="FP32">
					<dim>2</dim>
					<dim>4096</dim>
					<dim>320</dim>
				</port>
				<port id="1" precision="FP32">
					<dim>1</dim>
					<dim>1</dim>
					<dim>320</dim>
				</port>
			</input>
			<output>
				<port id="2" precision="FP32" names="/down_blocks.0/attentions.0/transformer_blocks.0/norm3/Add_1_output_0">
…
		<edge from-layer="3682" from-port="0" to-layer="3683" to-port="1" />
		<edge from-layer="3683" from-port="2" to-layer="3735" to-port="1" />
		<edge from-layer="3683" from-port="2" to-layer="3685" to-port="0" />
		<edge from-layer="3684" from-port="0" to-layer="3685" to-port="1" />
		<edge from-layer="3685" from-port="2" to-layer="3688" to-port="0" />
		<edge from-layer="3686" from-port="0" to-layer="3687" to-port="0" />
		<edge from-layer="3687" from-port="1" to-layer="3688" to-port="1" />
		<edge from-layer="3688" from-port="2" to-layer="3691" to-port="0" />
		<edge from-layer="3689" from-port="0" to-layer="3690" to-port="0" />
		<edge from-layer="3690" from-port="1" to-layer="3691" to-port="1" />
		<edge from-layer="3691" from-port="2" to-layer="3717" to-port="0" />
		<edge from-layer="3691" from-port="2" to-layer="3694" to-port="0" />
		<edge from-layer="3691" from-port="2" to-layer="3703" to-port="0" />
		<edge from-layer="3692" from-port="0" to-layer="3693" to-port="0" />
		<edge from-layer="3693" from-port="1" to-layer="3694" to-port="1" />
		<edge from-layer="3694" from-port="2" to-layer="3696" to-port="0" />
		<edge from-layer="3695" from-port="0" to-layer="3696" to-port="1" />
		<edge from-layer="3696" from-port="2" to-layer="3698" to-port="0" />
		<edge from-layer="3697" from-port="0" to-layer="3698" to-port="1" />
		<edge from-layer="3698" from-port="2" to-layer="3700" to-port="0" />
		<edge from-layer="3699" from-port="0" to-layer="3700" to-port="1" />
		<edge from-layer="3700" from-port="2" to-layer="3713" to-port="0" />
		<edge from-layer="3701" from-port="0" to-layer="3702" to-port="0" />
		<edge from-layer="3702" from-port="1" to-layer="3703" to-port="1" />
		<edge from-layer="3703" from-port="2" to-layer="3705" to-port="0" />
		<edge from-layer="3704" from-port="0" to-layer="3705" to-port="1" />
		<edge from-layer="3705" from-port="2" to-layer="3707" to-port="0" />
		<edge from-layer="3706" from-port="0" to-layer="3707" to-port="1" />
		<edge from-layer="3707" from-port="2" to-layer="3709" to-port="0" />
		<edge from-layer="3708" from-port="0" to-layer="3709" to-port="1" />
		<edge from-layer="3709" from-port="2" to-layer="3712" to-port="0" />
		<edge from-layer="3710" from-port="0" to-layer="3711" to-port="0" />
		<edge from-layer="3711" from-port="1" to-layer="3712" to-port="1" />
		<edge from-layer="3712" from-port="2" to-layer="3713" to-port="1" />
		<edge from-layer="3713" from-port="2" to-layer="3714" to-port="0" />
		<edge from-layer="3714" from-port="1" to-layer="3724" to-port="0" />
		<edge from-layer="3715" from-port="0" to-layer="3716" to-port="0" />
		<edge from-layer="3716" from-port="1" to-layer="3717" to-port="1" />
		<edge from-layer="3717" from-port="2" to-layer="3719" to-port="0" />
		<edge from-layer="3718" from-port="0" to-layer="3719" to-port="1" />
		<edge from-layer="3719" from-port="2" to-layer="3721" to-port="0" />
		<edge from-layer="3720" from-port="0" to-layer="3721" to-port="1" />
		<edge from-layer="3721" from-port="2" to-layer="3723" to-port="0" />
		<edge from-layer="3722" from-port="0" to-layer="3723" to-port="1" />
		<edge from-layer="3723" from-port="2" to-layer="3724" to-port="1" />
		<edge from-layer="3724" from-port="2" to-layer="3726" to-port="0" />
		<edge from-layer="3725" from-port="0" to-layer="3726" to-port="1" />
		<edge from-layer="3726" from-port="2" to-layer="3728" to-port="0" />
		<edge from-layer="3727" from-port="0" to-layer="3728" to-port="1" />
		<edge from-layer="3728" from-port="2" to-layer="3730" to-port="0" />
		<edge from-layer="3729" from-port="0" to-layer="3730" to-port="1" />
		<edge from-layer="3730" from-port="2" to-layer="3733" to-port="0" />
		<edge from-layer="3731" from-port="0" to-layer="3732" to-port="0" />
		<edge from-layer="3732" from-port="1" to-layer="3733" to-port="1" />
		<edge from-layer="3733" from-port="2" to-layer="3734" to-port="1" />
		<edge from-layer="3734" from-port="2" to-layer="3735" to-port="0" />
		<edge from-layer="3735" from-port="2" to-layer="3737" to-port="0" />
		<edge from-layer="3735" from-port="2" to-layer="3787" to-port="1" />
		<edge from-layer="3736" from-port="0" to-layer="3737" to-port="1" />
		<edge from-layer="3737" from-port="2" to-layer="3740" to-port="0" />
		<edge from-layer="3738" from-port="0" to-layer="3739" to-port="0" />
		<edge from-layer="3739" from-port="1" to-layer="3740" to-port="1" />
		<edge from-layer="3740" from-port="2" to-layer="3743" to-port="0" />
		<edge from-layer="3741" from-port="0" to-layer="3742" to-port="0" />
		<edge from-layer="3742" from-port="1" to-layer="3743" to-port="1" />
		<edge from-layer="3743" from-port="2" to-layer="3746" to-port="0" />
		<edge from-layer="3744" from-port="0" to-layer="3745" to-port="0" />
		<edge from-layer="3745" from-port="1" to-layer="3746" to-port="1" />
		<edge from-layer="3746" from-port="2" to-layer="3748" to-port="0" />
		<edge from-layer="3747" from-port="0" to-layer="3748" to-port="1" />
		<edge from-layer="3748" from-port="2" to-layer="3750" to-port="0" />
		<edge from-layer="3749" from-port="0" to-layer="3750" to-port="1" />
		<edge from-layer="3750" from-port="2" to-layer="3752" to-port="0" />
		<edge from-layer="3751" from-port="0" to-layer="3752" to-port="1" />
		<edge from-layer="3752" from-port="2" to-layer="3765" to-port="0" />
		<edge from-layer="3753" from-port="0" to-layer="3754" to-port="0" />
		<edge from-layer="3754" from-port="1" to-layer="3755" to-port="1" />
		<edge from-layer="3755" from-port="2" to-layer="3757" to-port="0" />
		<edge from-layer="3756" from-port="0" to-layer="3757" to-port="1" />
		<edge from-layer="3757" from-port="2" to-layer="3759" to-port="0" />
		<edge from-layer="3758" from-port="0" to-layer="3759" to-port="1" />
		<edge from-layer="3759" from-port="2" to-layer="3761" to-port="0" />
		<edge from-layer="3760" from-port="0" to-layer="3761" to-port="1" />
		<edge from-layer="3761" from-port="2" to-layer="3764" to-port="0" />
		<edge from-layer="3762" from-port="0" to-layer="3763" to-port="0" />
		<edge from-layer="3763" from-port="1" to-layer="3764" to-port="1" />
		<edge from-layer="3764" from-port="2" to-layer="3765" to-port="1" />
		<edge from-layer="3765" from-port="2" to-layer="3766" to-port="0" />
		<edge from-layer="3766" from-port="1" to-layer="3776" to-port="0" />
		<edge from-layer="3767" from-port="0" to-layer="3768" to-port="0" />
		<edge from-layer="3768" from-port="1" to-layer="3769" to-port="1" />
		<edge from-layer="3769" from-port="2" to-layer="3771" to-port="0" />
		<edge from-layer="3770" from-port="0" to-layer="3771" to-port="1" />
		<edge from-layer="3771" from-port="2" to-layer="3773" to-port="0" />
		<edge from-layer="3772" from-port="0" to-layer="3773" to-port="1" />
		<edge from-layer="3773" from-port="2" to-layer="3775" to-port="0" />
		<edge from-layer="3774" from-port="0" to-layer="3775" to-port="1" />
		<edge from-layer="3775" from-port="2" to-layer="3776" to-port="1" />
		<edge from-layer="3776" from-port="2" to-layer="3778" to-port="0" />
		<edge from-layer="3777" from-port="0" to-layer="3778" to-port="1" />
		<edge from-layer="3778" from-port="2" to-layer="3780" to-port="0" />
		<edge from-layer="3779" from-port="0" to-layer="3780" to-port="1" />
		<edge from-layer="3780" from-port="2" to-layer="3782" to-port="0" />
		<edge from-layer="3781" from-port="0" to-layer="3782" to-port="1" />
		<edge from-layer="3782" from-port="2" to-layer="3785" to-port="0" />
		<edge from-layer="3783" from-port="0" to-layer="3784" to-port="0" />
		<edge from-layer="3784" from-port="1" to-layer="3785" to-port="1" />
		<edge from-layer="3785" from-port="2" to-layer="3786" to-port="1" />
		<edge from-layer="3786" from-port="2" to-layer="3787" to-port="0" />
		<edge from-layer="3787" from-port="2" to-layer="3789" to-port="0" />
		<edge from-layer="3787" from-port="2" to-layer="3831" to-port="1" />
		<edge from-layer="3788" from-port="0" to-layer="3789" to-port="1" />
		<edge from-layer="3789" from-port="2" to-layer="3792" to-port="0" />
		<edge from-layer="3790" from-port="0" to-layer="3791" to-port="0" />
		<edge from-layer="3791" from-port="1" to-layer="3792" to-port="1" />
		<edge from-layer="3792" from-port="2" to-layer="3795" to-port="0" />
		<edge from-layer="3793" from-port="0" to-layer="3794" to-port="0" />
		<edge from-layer="3794" from-port="1" to-layer="3795" to-port="1" />
		<edge from-layer="3795" from-port="2" to-layer="3798" to-port="0" />
		<edge from-layer="3796" from-port="0" to-layer="3797" to-port="0" />
		<edge from-layer="3797" from-port="1" to-layer="3798" to-port="1" />
		<edge from-layer="3798" from-port="2" to-layer="3799" to-port="1" />
		<edge from-layer="3799" from-port="2" to-layer="3803" to-port="0" />
		<edge from-layer="3799" from-port="2" to-layer="3824" to-port="0" />
		<edge from-layer="3799" from-port="2" to-layer="3814" to-port="0" />
		<edge from-layer="3800" from-port="0" to-layer="3814" to-port="1" />
		<edge from-layer="3801" from-port="0" to-layer="3812" to-port="0" />
		<edge from-layer="3802" from-port="0" to-layer="3812" to-port="1" />
		<edge from-layer="3803" from-port="1" to-layer="3806" to-port="0" />
		<edge from-layer="3804" from-port="0" to-layer="3806" to-port="1" />
		<edge from-layer="3805" from-port="0" to-layer="3806" to-port="2" />
		<edge from-layer="3806" from-port="3" to-layer="3808" to-port="0" />
		<edge from-layer="3807" from-port="0" to-layer="3808" to-port="1" />
		<edge from-layer="3808" from-port="2" to-layer="3810" to-port="0" />
		<edge from-layer="3809" from-port="0" to-layer="3810" to-port="1" />
		<edge from-layer="3810" from-port="2" to-layer="3818" to-port="2" />
		<edge from-layer="3810" from-port="2" to-layer="3821" to-port="0" />
		<edge from-layer="3810" from-port="2" to-layer="3812" to-port="2" />
		<edge from-layer="3811" from-port="0" to-layer="3812" to-port="3" />
		<edge from-layer="3812" from-port="4" to-layer="3814" to-port="2" />
		<edge from-layer="3813" from-port="0" to-layer="3814" to-port="3" />
		<edge from-layer="3814" from-port="4" to-layer="3826" to-port="0" />
		<edge from-layer="3815" from-port="0" to-layer="3818" to-port="0" />
		<edge from-layer="3816" from-port="0" to-layer="3822" to-port="1" />
		<edge from-layer="3816" from-port="0" to-layer="3818" to-port="1" />
		<edge from-layer="3817" from-port="0" to-layer="3822" to-port="3" />
		<edge from-layer="3817" from-port="0" to-layer="3818" to-port="3" />
		<edge from-layer="3818" from-port="4" to-layer="3824" to-port="1" />
		<edge from-layer="3819" from-port="0" to-layer="3822" to-port="0" />
		<edge from-layer="3820" from-port="0" to-layer="3821" to-port="1" />
		<edge from-layer="3821" from-port="2" to-layer="3822" to-port="2" />
		<edge from-layer="3822" from-port="4" to-layer="3824" to-port="2" />
		<edge from-layer="3823" from-port="0" to-layer="3824" to-port="3" />
		<edge from-layer="3824" from-port="4" to-layer="3825" to-port="0" />
		<edge from-layer="3825" from-port="1" to-layer="3826" to-port="1" />
		<edge from-layer="3826" from-port="2" to-layer="3829" to-port="0" />
		<edge from-layer="3827" from-port="0" to-layer="3828" to-port="0" />
		<edge from-layer="3828" from-port="1" to-layer="3829" to-port="1" />
		<edge from-layer="3829" from-port="2" to-layer="3830" to-port="1" />
		<edge from-layer="3830" from-port="2" to-layer="3831" to-port="0" />
		<edge from-layer="3831" from-port="2" to-layer="3833" to-port="0" />
		<edge from-layer="3832" from-port="0" to-layer="3833" to-port="1" />
		<edge from-layer="3833" from-port="2" to-layer="3835" to-port="0" />
		<edge from-layer="3834" from-port="0" to-layer="3835" to-port="1" />
		<edge from-layer="3835" from-port="2" to-layer="3838" to-port="0" />
		<edge from-layer="3836" from-port="0" to-layer="3837" to-port="0" />
		<edge from-layer="3837" from-port="1" to-layer="3838" to-port="1" />
		<edge from-layer="3838" from-port="2" to-layer="3841" to-port="0" />
		<edge from-layer="3839" from-port="0" to-layer="3840" to-port="0" />
		<edge from-layer="3840" from-port="1" to-layer="3841" to-port="1" />
		<edge from-layer="3841" from-port="2" to-layer="3842" to-port="0" />
		<edge from-layer="3842" from-port="2" to-layer="3843" to-port="0" />
		<edge from-layer="3843" from-port="2" to-layer="3851" to-port="0" />
		<edge from-layer="3843" from-port="2" to-layer="3854" to-port="0" />
		<edge from-layer="3843" from-port="2" to-layer="3846" to-port="0" />
		<edge from-layer="3844" from-port="0" to-layer="3845" to-port="0" />
		<edge from-layer="3845" from-port="1" to-layer="3846" to-port="1" />
		<edge from-layer="3846" from-port="2" to-layer="3849" to-port="0" />
		<edge from-layer="3847" from-port="0" to-layer="3848" to-port="0" />
		<edge from-layer="3848" from-port="1" to-layer="3849" to-port="1" />
		<edge from-layer="3849" from-port="2" to-layer="3899" to-port="0" />
		<edge from-layer="3850" from-port="0" to-layer="3851" to-port="1" />
		<edge from-layer="3851" from-port="2" to-layer="3853" to-port="0" />
		<edge from-layer="3852" from-port="0" to-layer="3853" to-port="1" />
		<edge from-layer="3853" from-port="2" to-layer="3855" to-port="0" />
		<edge from-layer="3854" from-port="1" to-layer="3855" to-port="1" />
		<edge from-layer="3855" from-port="2" to-layer="3858" to-port="0" />
		<edge from-layer="3856" from-port="0" to-layer="3857" to-port="0" />
		<edge from-layer="3857" from-port="1" to-layer="3858" to-port="1" />
		<edge from-layer="3858" from-port="2" to-layer="3861" to-port="0" />
		<edge from-layer="3859" from-port="0" to-layer="3860" to-port="0" />
		<edge from-layer="3860" from-port="1" to-layer="3861" to-port="1" />
		<edge from-layer="3861" from-port="2" to-layer="3862" to-port="0" />
		<edge from-layer="3862" from-port="1" to-layer="3865" to-port="0" />
		<edge from-layer="3863" from-port="0" to-layer="3864" to-port="0" />
		<edge from-layer="3864" from-port="1" to-layer="3865" to-port="1" />
		<edge from-layer="3865" from-port="2" to-layer="3868" to-port="0" />
		<edge from-layer="3866" from-port="0" to-layer="3867" to-port="0" />
		<edge from-layer="3867" from-port="1" to-layer="3868" to-port="1" />
		<edge from-layer="3868" from-port="2" to-layer="3879" to-port="0" />
		<edge from-layer="3869" from-port="0" to-layer="3870" to-port="0" />
		<edge from-layer="3870" from-port="1" to-layer="3871" to-port="1" />
		<edge from-layer="3871" from-port="2" to-layer="3874" to-port="0" />
		<edge from-layer="3872" from-port="0" to-layer="3873" to-port="0" />
		<edge from-layer="3873" from-port="1" to-layer="3874" to-port="1" />
		<edge from-layer="3874" from-port="2" to-layer="3876" to-port="0" />
		<edge from-layer="3875" from-port="0" to-layer="3876" to-port="1" />
		<edge from-layer="3876" from-port="2" to-layer="3878" to-port="0" />
		<edge from-layer="3877" from-port="0" to-layer="3878" to-port="1" />
		<edge from-layer="3878" from-port="2" to-layer="3879" to-port="1" />
		<edge from-layer="3879" from-port="2" to-layer="3881" to-port="0" />
		<edge from-layer="3879" from-port="2" to-layer="3884" to-port="0" />
		<edge from-layer="3880" from-port="0" to-layer="3881" to-port="1" />
		<edge from-layer="3881" from-port="2" to-layer="3883" to-port="0" />
		<edge from-layer="3882" from-port="0" to-layer="3883" to-port="1" />
		<edge from-layer="3883" from-port="2" to-layer="3885" to-port="0" />
		<edge from-layer="3884" from-port="1" to-layer="3885" to-port="1" />
		<edge from-layer="3885" from-port="2" to-layer="3888" to-port="0" />
		<edge from-layer="3886" from-port="0" to-layer="3887" to-port="0" />
		<edge from-layer="3887" from-port="1" to-layer="3888" to-port="1" />
		<edge from-layer="3888" from-port="2" to-layer="3891" to-port="0" />
		<edge from-layer="3889" from-port="0" to-layer="3890" to-port="0" />
		<edge from-layer="3890" from-port="1" to-layer="3891" to-port="1" />
		<edge from-layer="3891" from-port="2" to-layer="3892" to-port="0" />
		<edge from-layer="3892" from-port="1" to-layer="3895" to-port="0" />
		<edge from-layer="3893" from-port="0" to-layer="3894" to-port="0" />
		<edge from-layer="3894" from-port="1" to-layer="3895" to-port="1" />
		<edge from-layer="3895" from-port="2" to-layer="3898" to-port="0" />
		<edge from-layer="3896" from-port="0" to-layer="3897" to-port="0" />
		<edge from-layer="3897" from-port="1" to-layer="3898" to-port="1" />
		<edge from-layer="3898" from-port="2" to-layer="3899" to-port="1" />
		<edge from-layer="3899" from-port="2" to-layer="3904" to-port="0" />
		<edge from-layer="3899" from-port="2" to-layer="4080" to-port="1" />
		<edge from-layer="3899" from-port="2" to-layer="3901" to-port="0" />
		<edge from-layer="3900" from-port="0" to-layer="3901" to-port="1" />
		<edge from-layer="3901" from-port="2" to-layer="3903" to-port="0" />
		<edge from-layer="3902" from-port="0" to-layer="3903" to-port="1" />
		<edge from-layer="3903" from-port="2" to-layer="3905" to-port="0" />
		<edge from-layer="3904" from-port="1" to-layer="3905" to-port="1" />
		<edge from-layer="3905" from-port="2" to-layer="3908" to-port="0" />
		<edge from-layer="3906" from-port="0" to-layer="3907" to-port="0" />
		<edge from-layer="3907" from-port="1" to-layer="3908" to-port="1" />
		<edge from-layer="3908" from-port="2" to-layer="3911" to-port="0" />
		<edge from-layer="3909" from-port="0" to-layer="3910" to-port="0" />
		<edge from-layer="3910" from-port="1" to-layer="3911" to-port="1" />
		<edge from-layer="3911" from-port="2" to-layer="3914" to-port="0" />
		<edge from-layer="3912" from-port="0" to-layer="3913" to-port="0" />
		<edge from-layer="3913" from-port="1" to-layer="3914" to-port="1" />
		<edge from-layer="3914" from-port="2" to-layer="3917" to-port="0" />
		<edge from-layer="3915" from-port="0" to-layer="3916" to-port="0" />
		<edge from-layer="3916" from-port="1" to-layer="3917" to-port="1" />
		<edge from-layer="3917" from-port="2" to-layer="3919" to-port="0" />
		<edge from-layer="3918" from-port="0" to-layer="3919" to-port="1" />
		<edge from-layer="3919" from-port="2" to-layer="3921" to-port="0" />
		<edge from-layer="3920" from-port="0" to-layer="3921" to-port="1" />
		<edge from-layer="3921" from-port="2" to-layer="3923" to-port="0" />
		<edge from-layer="3921" from-port="2" to-layer="3973" to-port="1" />
		<edge from-layer="3922" from-port="0" to-layer="3923" to-port="1" />
		<edge from-layer="3923" from-port="2" to-layer="3926" to-port="0" />
		<edge from-layer="3924" from-port="0" to-layer="3925" to-port="0" />
		<edge from-layer="3925" from-port="1" to-layer="3926" to-port="1" />
		<edge from-layer="3926" from-port="2" to-layer="3929" to-port="0" />
		<edge from-layer="3927" from-port="0" to-layer="3928" to-port="0" />
		<edge from-layer="3928" from-port="1" to-layer="3929" to-port="1" />
		<edge from-layer="3929" from-port="2" to-layer="3955" to-port="0" />
		<edge from-layer="3929" from-port="2" to-layer="3932" to-port="0" />
		<edge from-layer="3929" from-port="2" to-layer="3941" to-port="0" />
		<edge from-layer="3930" from-port="0" to-layer="3931" to-port="0" />
		<edge from-layer="3931" from-port="1" to-layer="3932" to-port="1" />
		<edge from-layer="3932" from-port="2" to-layer="3934" to-port="0" />
		<edge from-layer="3933" from-port="0" to-layer="3934" to-port="1" />
		<edge from-layer="3934" from-port="2" to-layer="3936" to-port="0" />
		<edge from-layer="3935" from-port="0" to-layer="3936" to-port="1" />
		<edge from-layer="3936" from-port="2" to-layer="3938" to-port="0" />
		<edge from-layer="3937" from-port="0" to-layer="3938" to-port="1" />
		<edge from-layer="3938" from-port="2" to-layer="3951" to-port="0" />
		<edge from-layer="3939" from-port="0" to-layer="3940" to-port="0" />
		<edge from-layer="3940" from-port="1" to-layer="3941" to-port="1" />
		<edge from-layer="3941" from-port="2" to-layer="3943" to-port="0" />
		<edge from-layer="3942" from-port="0" to-layer="3943" to-port="1" />
		<edge from-layer="3943" from-port="2" to-layer="3945" to-port="0" />
		<edge from-layer="3944" from-port="0" to-layer="3945" to-port="1" />
		<edge from-layer="3945" from-port="2" to-layer="3947" to-port="0" />
		<edge from-layer="3946" from-port="0" to-layer="3947" to-port="1" />
		<edge from-layer="3947" from-port="2" to-layer="3950" to-port="0" />
		<edge from-layer="3948" from-port="0" to-layer="3949" to-port="0" />
		<edge from-layer="3949" from-port="1" to-layer="3950" to-port="1" />
		<edge from-layer="3950" from-port="2" to-layer="3951" to-port="1" />
		<edge from-layer="3951" from-port="2" to-layer="3952" to-port="0" />
		<edge from-layer="3952" from-port="1" to-layer="3962" to-port="0" />
		<edge from-layer="3953" from-port="0" to-layer="3954" to-port="0" />
		<edge from-layer="3954" from-port="1" to-layer="3955" to-port="1" />
		<edge from-layer="3955" from-port="2" to-layer="3957" to-port="0" />
		<edge from-layer="3956" from-port="0" to-layer="3957" to-port="1" />
		<edge from-layer="3957" from-port="2" to-layer="3959" to-port="0" />
		<edge from-layer="3958" from-port="0" to-layer="3959" to-port="1" />
		<edge from-layer="3959" from-port="2" to-layer="3961" to-port="0" />
		<edge from-layer="3960" from-port="0" to-layer="3961" to-port="1" />
		<edge from-layer="3961" from-port="2" to-layer="3962" to-port="1" />
		<edge from-layer="3962" from-port="2" to-layer="3964" to-port="0" />
		<edge from-layer="3963" from-port="0" to-layer="3964" to-port="1" />
		<edge from-layer="3964" from-port="2" to-layer="3966" to-port="0" />
		<edge from-layer="3965" from-port="0" to-layer="3966" to-port="1" />
		<edge from-layer="3966" from-port="2" to-layer="3968" to-port="0" />
		<edge from-layer="3967" from-port="0" to-layer="3968" to-port="1" />
		<edge from-layer="3968" from-port="2" to-layer="3971" to-port="0" />
		<edge from-layer="3969" from-port="0" to-layer="3970" to-port="0" />
		<edge from-layer="3970" from-port="1" to-layer="3971" to-port="1" />
		<edge from-layer="3971" from-port="2" to-layer="3972" to-port="1" />
		<edge from-layer="3972" from-port="2" to-layer="3973" to-port="0" />
		<edge from-layer="3973" from-port="2" to-layer="4025" to-port="1" />
		<edge from-layer="3973" from-port="2" to-layer="3975" to-port="0" />
		<edge from-layer="3974" from-port="0" to-layer="3975" to-port="1" />
		<edge from-layer="3975" from-port="2" to-layer="3978" to-port="0" />
		<edge from-layer="3976" from-port="0" to-layer="3977" to-port="0" />
		<edge from-layer="3977" from-port="1" to-layer="3978" to-port="1" />
		<edge from-layer="3978" from-port="2" to-layer="3981" to-port="0" />
		<edge from-layer="3979" from-port="0" to-layer="3980" to-port="0" />
		<edge from-layer="3980" from-port="1" to-layer="3981" to-port="1" />
		<edge from-layer="3981" from-port="2" to-layer="3984" to-port="0" />
		<edge from-layer="3982" from-port="0" to-layer="3983" to-port="0" />
		<edge from-layer="3983" from-port="1" to-layer="3984" to-port="1" />
		<edge from-layer="3984" from-port="2" to-layer="3986" to-port="0" />
		<edge from-layer="3985" from-port="0" to-layer="3986" to-port="1" />
		<edge from-layer="3986" from-port="2" to-layer="3988" to-port="0" />
		<edge from-layer="3987" from-port="0" to-layer="3988" to-port="1" />
		<edge from-layer="3988" from-port="2" to-layer="3990" to-port="0" />
		<edge from-layer="3989" from-port="0" to-layer="3990" to-port="1" />
		<edge from-layer="3990" from-port="2" to-layer="4003" to-port="0" />
		<edge from-layer="3991" from-port="0" to-layer="3992" to-port="0" />
		<edge from-layer="3992" from-port="1" to-layer="3993" to-port="1" />
		<edge from-layer="3993" from-port="2" to-layer="3995" to-port="0" />
		<edge from-layer="3994" from-port="0" to-layer="3995" to-port="1" />
		<edge from-layer="3995" from-port="2" to-layer="3997" to-port="0" />
		<edge from-layer="3996" from-port="0" to-layer="3997" to-port="1" />
		<edge from-layer="3997" from-port="2" to-layer="3999" to-port="0" />
		<edge from-layer="3998" from-port="0" to-layer="3999" to-port="1" />
		<edge from-layer="3999" from-port="2" to-layer="4002" to-port="0" />
		<edge from-layer="4000" from-port="0" to-layer="4001" to-port="0" />
		<edge from-layer="4001" from-port="1" to-layer="4002" to-port="1" />
		<edge from-layer="4002" from-port="2" to-layer="4003" to-port="1" />
		<edge from-layer="4003" from-port="2" to-layer="4004" to-port="0" />
		<edge from-layer="4004" from-port="1" to-layer="4014" to-port="0" />
		<edge from-layer="4005" from-port="0" to-layer="4006" to-port="0" />
		<edge from-layer="4006" from-port="1" to-layer="4007" to-port="1" />
		<edge from-layer="4007" from-port="2" to-layer="4009" to-port="0" />
		<edge from-layer="4008" from-port="0" to-layer="4009" to-port="1" />
		<edge from-layer="4009" from-port="2" to-layer="4011" to-port="0" />
		<edge from-layer="4010" from-port="0" to-layer="4011" to-port="1" />
		<edge from-layer="4011" from-port="2" to-layer="4013" to-port="0" />
		<edge from-layer="4012" from-port="0" to-layer="4013" to-port="1" />
		<edge from-layer="4013" from-port="2" to-layer="4014" to-port="1" />
		<edge from-layer="4014" from-port="2" to-layer="4016" to-port="0" />
		<edge from-layer="4015" from-port="0" to-layer="4016" to-port="1" />
		<edge from-layer="4016" from-port="2" to-layer="4018" to-port="0" />
		<edge from-layer="4017" from-port="0" to-layer="4018" to-port="1" />
		<edge from-layer="4018" from-port="2" to-layer="4020" to-port="0" />
		<edge from-layer="4019" from-port="0" to-layer="4020" to-port="1" />
		<edge from-layer="4020" from-port="2" to-layer="4023" to-port="0" />
		<edge from-layer="4021" from-port="0" to-layer="4022" to-port="0" />
		<edge from-layer="4022" from-port="1" to-layer="4023" to-port="1" />
		<edge from-layer="4023" from-port="2" to-layer="4024" to-port="1" />
		<edge from-layer="4024" from-port="2" to-layer="4025" to-port="0" />
		<edge from-layer="4025" from-port="2" to-layer="4069" to-port="1" />
		<edge from-layer="4025" from-port="2" to-layer="4027" to-port="0" />
		<edge from-layer="4026" from-port="0" to-layer="4027" to-port="1" />
		<edge from-layer="4027" from-port="2" to-layer="4030" to-port="0" />
		<edge from-layer="4028" from-port="0" to-layer="4029" to-port="0" />
		<edge from-layer="4029" from-port="1" to-layer="4030" to-port="1" />
		<edge from-layer="4030" from-port="2" to-layer="4033" to-port="0" />
		<edge from-layer="4031" from-port="0" to-layer="4032" to-port="0" />
		<edge from-layer="4032" from-port="1" to-layer="4033" to-port="1" />
		<edge from-layer="4033" from-port="2" to-layer="4036" to-port="0" />
		<edge from-layer="4034" from-port="0" to-layer="4035" to-port="0" />
		<edge from-layer="4035" from-port="1" to-layer="4036" to-port="1" />
		<edge from-layer="4036" from-port="2" to-layer="4037" to-port="1" />
		<edge from-layer="4037" from-port="2" to-layer="4041" to-port="0" />
		<edge from-layer="4037" from-port="2" to-layer="4052" to-port="0" />
		<edge from-layer="4037" from-port="2" to-layer="4062" to-port="0" />
		<edge from-layer="4038" from-port="0" to-layer="4052" to-port="1" />
		<edge from-layer="4039" from-port="0" to-layer="4050" to-port="0" />
		<edge from-layer="4040" from-port="0" to-layer="4050" to-port="1" />
		<edge from-layer="4041" from-port="1" to-layer="4044" to-port="0" />
		<edge from-layer="4042" from-port="0" to-layer="4044" to-port="1" />
		<edge from-layer="4043" from-port="0" to-layer="4044" to-port="2" />
		<edge from-layer="4044" from-port="3" to-layer="4046" to-port="0" />
		<edge from-layer="4045" from-port="0" to-layer="4046" to-port="1" />
		<edge from-layer="4046" from-port="2" to-layer="4048" to-port="0" />
		<edge from-layer="4047" from-port="0" to-layer="4048" to-port="1" />
		<edge from-layer="4048" from-port="2" to-layer="4050" to-port="2" />
		<edge from-layer="4048" from-port="2" to-layer="4056" to-port="2" />
		<edge from-layer="4048" from-port="2" to-layer="4059" to-port="0" />
		<edge from-layer="4049" from-port="0" to-layer="4050" to-port="3" />
		<edge from-layer="4050" from-port="4" to-layer="4052" to-port="2" />
		<edge from-layer="4051" from-port="0" to-layer="4052" to-port="3" />
		<edge from-layer="4052" from-port="4" to-layer="4064" to-port="0" />
		<edge from-layer="4053" from-port="0" to-layer="4056" to-port="0" />
		<edge from-layer="4054" from-port="0" to-layer="4056" to-port="1" />
		<edge from-layer="4054" from-port="0" to-layer="4060" to-port="1" />
		<edge from-layer="4055" from-port="0" to-layer="4060" to-port="3" />
		<edge from-layer="4055" from-port="0" to-layer="4056" to-port="3" />
		<edge from-layer="4056" from-port="4" to-layer="4062" to-port="1" />
		<edge from-layer="4057" from-port="0" to-layer="4060" to-port="0" />
		<edge from-layer="4058" from-port="0" to-layer="4059" to-port="1" />
		<edge from-layer="4059" from-port="2" to-layer="4060" to-port="2" />
		<edge from-layer="4060" from-port="4" to-layer="4062" to-port="2" />
		<edge from-layer="4061" from-port="0" to-layer="4062" to-port="3" />
		<edge from-layer="4062" from-port="4" to-layer="4063" to-port="0" />
		<edge from-layer="4063" from-port="1" to-layer="4064" to-port="1" />
		<edge from-layer="4064" from-port="2" to-layer="4067" to-port="0" />
		<edge from-layer="4065" from-port="0" to-layer="4066" to-port="0" />
		<edge from-layer="4066" from-port="1" to-layer="4067" to-port="1" />
		<edge from-layer="4067" from-port="2" to-layer="4068" to-port="1" />
		<edge from-layer="4068" from-port="2" to-layer="4069" to-port="0" />
		<edge from-layer="4069" from-port="2" to-layer="4071" to-port="0" />
		<edge from-layer="4070" from-port="0" to-layer="4071" to-port="1" />
		<edge from-layer="4071" from-port="2" to-layer="4073" to-port="0" />
		<edge from-layer="4072" from-port="0" to-layer="4073" to-port="1" />
		<edge from-layer="4073" from-port="2" to-layer="4076" to-port="0" />
		<edge from-layer="4074" from-port="0" to-layer="4075" to-port="0" />
		<edge from-layer="4075" from-port="1" to-layer="4076" to-port="1" />
		<edge from-layer="4076" from-port="2" to-layer="4079" to-port="0" />
		<edge from-layer="4077" from-port="0" to-layer="4078" to-port="0" />
		<edge from-layer="4078" from-port="1" to-layer="4079" to-port="1" />
		<edge from-layer="4079" from-port="2" to-layer="4080" to-port="0" />
		<edge from-layer="4080" from-port="2" to-layer="4081" to-port="0" />
		<edge from-layer="4081" from-port="2" to-layer="4084" to-port="0" />
		<edge from-layer="4081" from-port="2" to-layer="4089" to-port="0" />
		<edge from-layer="4081" from-port="2" to-layer="4092" to-port="0" />
		<edge from-layer="4082" from-port="0" to-layer="4083" to-port="0" />
		<edge from-layer="4083" from-port="1" to-layer="4084" to-port="1" />
		<edge from-layer="4084" from-port="2" to-layer="4087" to-port="0" />
		<edge from-layer="4085" from-port="0" to-layer="4086" to-port="0" />
		<edge from-layer="4086" from-port="1" to-layer="4087" to-port="1" />
		<edge from-layer="4087" from-port="2" to-layer="4137" to-port="0" />
		<edge from-layer="4088" from-port="0" to-layer="4089" to-port="1" />
		<edge from-layer="4089" from-port="2" to-layer="4091" to-port="0" />
		<edge from-layer="4090" from-port="0" to-layer="4091" to-port="1" />
		<edge from-layer="4091" from-port="2" to-layer="4093" to-port="0" />
		<edge from-layer="4092" from-port="1" to-layer="4093" to-port="1" />
		<edge from-layer="4093" from-port="2" to-layer="4096" to-port="0" />
		<edge from-layer="4094" from-port="0" to-layer="4095" to-port="0" />
		<edge from-layer="4095" from-port="1" to-layer="4096" to-port="1" />
		<edge from-layer="4096" from-port="2" to-layer="4099" to-port="0" />
		<edge from-layer="4097" from-port="0" to-layer="4098" to-port="0" />
		<edge from-layer="4098" from-port="1" to-layer="4099" to-port="1" />
		<edge from-layer="4099" from-port="2" to-layer="4100" to-port="0" />
		<edge from-layer="4100" from-port="1" to-layer="4103" to-port="0" />
		<edge from-layer="4101" from-port="0" to-layer="4102" to-port="0" />
		<edge from-layer="4102" from-port="1" to-layer="4103" to-port="1" />
		<edge from-layer="4103" from-port="2" to-layer="4106" to-port="0" />
		<edge from-layer="4104" from-port="0" to-layer="4105" to-port="0" />
		<edge from-layer="4105" from-port="1" to-layer="4106" to-port="1" />
		<edge from-layer="4106" from-port="2" to-layer="4117" to-port="0" />
		<edge from-layer="4107" from-port="0" to-layer="4108" to-port="0" />
		<edge from-layer="4108" from-port="1" to-layer="4109" to-port="1" />
		<edge from-layer="4109" from-port="2" to-layer="4112" to-port="0" />
		<edge from-layer="4110" from-port="0" to-layer="4111" to-port="0" />
		<edge from-layer="4111" from-port="1" to-layer="4112" to-port="1" />
		<edge from-layer="4112" from-port="2" to-layer="4114" to-port="0" />
		<edge from-layer="4113" from-port="0" to-layer="4114" to-port="1" />
		<edge from-layer="4114" from-port="2" to-layer="4116" to-port="0" />
		<edge from-layer="4115" from-port="0" to-layer="4116" to-port="1" />
		<edge from-layer="4116" from-port="2" to-layer="4117" to-port="1" />
		<edge from-layer="4117" from-port="2" to-layer="4119" to-port="0" />
		<edge from-layer="4117" from-port="2" to-layer="4122" to-port="0" />
		<edge from-layer="4118" from-port="0" to-layer="4119" to-port="1" />
		<edge from-layer="4119" from-port="2" to-layer="4121" to-port="0" />
		<edge from-layer="4120" from-port="0" to-layer="4121" to-port="1" />
		<edge from-layer="4121" from-port="2" to-layer="4123" to-port="0" />
		<edge from-layer="4122" from-port="1" to-layer="4123" to-port="1" />
		<edge from-layer="4123" from-port="2" to-layer="4126" to-port="0" />
		<edge from-layer="4124" from-port="0" to-layer="4125" to-port="0" />
		<edge from-layer="4125" from-port="1" to-layer="4126" to-port="1" />
		<edge from-layer="4126" from-port="2" to-layer="4129" to-port="0" />
		<edge from-layer="4127" from-port="0" to-layer="4128" to-port="0" />
		<edge from-layer="4128" from-port="1" to-layer="4129" to-port="1" />
		<edge from-layer="4129" from-port="2" to-layer="4130" to-port="0" />
		<edge from-layer="4130" from-port="1" to-layer="4133" to-port="0" />
		<edge from-layer="4131" from-port="0" to-layer="4132" to-port="0" />
		<edge from-layer="4132" from-port="1" to-layer="4133" to-port="1" />
		<edge from-layer="4133" from-port="2" to-layer="4136" to-port="0" />
		<edge from-layer="4134" from-port="0" to-layer="4135" to-port="0" />
		<edge from-layer="4135" from-port="1" to-layer="4136" to-port="1" />
		<edge from-layer="4136" from-port="2" to-layer="4137" to-port="1" />
		<edge from-layer="4137" from-port="2" to-layer="4142" to-port="0" />
		<edge from-layer="4137" from-port="2" to-layer="4139" to-port="0" />
		<edge from-layer="4137" from-port="2" to-layer="4318" to-port="1" />
		<edge from-layer="4138" from-port="0" to-layer="4139" to-port="1" />
		<edge from-layer="4139" from-port="2" to-layer="4141" to-port="0" />
		<edge from-layer="4140" from-port="0" to-layer="4141" to-port="1" />
		<edge from-layer="4141" from-port="2" to-layer="4143" to-port="0" />
		<edge from-layer="4142" from-port="1" to-layer="4143" to-port="1" />
		<edge from-layer="4143" from-port="2" to-layer="4146" to-port="0" />
		<edge from-layer="4144" from-port="0" to-layer="4145" to-port="0" />
		<edge from-layer="4145" from-port="1" to-layer="4146" to-port="1" />
		<edge from-layer="4146" from-port="2" to-layer="4149" to-port="0" />
		<edge from-layer="4147" from-port="0" to-layer="4148" to-port="0" />
		<edge from-layer="4148" from-port="1" to-layer="4149" to-port="1" />
		<edge from-layer="4149" from-port="2" to-layer="4152" to-port="0" />
		<edge from-layer="4150" from-port="0" to-layer="4151" to-port="0" />
		<edge from-layer="4151" from-port="1" to-layer="4152" to-port="1" />
		<edge from-layer="4152" from-port="2" to-layer="4155" to-port="0" />
		<edge from-layer="4153" from-port="0" to-layer="4154" to-port="0" />
		<edge from-layer="4154" from-port="1" to-layer="4155" to-port="1" />
		<edge from-layer="4155" from-port="2" to-layer="4157" to-port="0" />
		<edge from-layer="4156" from-port="0" to-layer="4157" to-port="1" />
		<edge from-layer="4157" from-port="2" to-layer="4159" to-port="0" />
		<edge from-layer="4158" from-port="0" to-layer="4159" to-port="1" />
		<edge from-layer="4159" from-port="2" to-layer="4161" to-port="0" />
		<edge from-layer="4159" from-port="2" to-layer="4211" to-port="1" />
		<edge from-layer="4160" from-port="0" to-layer="4161" to-port="1" />
		<edge from-layer="4161" from-port="2" to-layer="4164" to-port="0" />
		<edge from-layer="4162" from-port="0" to-layer="4163" to-port="0" />
		<edge from-layer="4163" from-port="1" to-layer="4164" to-port="1" />
		<edge from-layer="4164" from-port="2" to-layer="4167" to-port="0" />
		<edge from-layer="4165" from-port="0" to-layer="4166" to-port="0" />
		<edge from-layer="4166" from-port="1" to-layer="4167" to-port="1" />
		<edge from-layer="4167" from-port="2" to-layer="4170" to-port="0" />
		<edge from-layer="4167" from-port="2" to-layer="4193" to-port="0" />
		<edge from-layer="4167" from-port="2" to-layer="4179" to-port="0" />
		<edge from-layer="4168" from-port="0" to-layer="4169" to-port="0" />
		<edge from-layer="4169" from-port="1" to-layer="4170" to-port="1" />
		<edge from-layer="4170" from-port="2" to-layer="4172" to-port="0" />
		<edge from-layer="4171" from-port="0" to-layer="4172" to-port="1" />
		<edge from-layer="4172" from-port="2" to-layer="4174" to-port="0" />
		<edge from-layer="4173" from-port="0" to-layer="4174" to-port="1" />
		<edge from-layer="4174" from-port="2" to-layer="4176" to-port="0" />
		<edge from-layer="4175" from-port="0" to-layer="4176" to-port="1" />
		<edge from-layer="4176" from-port="2" to-layer="4189" to-port="0" />
		<edge from-layer="4177" from-port="0" to-layer="4178" to-port="0" />
		<edge from-layer="4178" from-port="1" to-layer="4179" to-port="1" />
		<edge from-layer="4179" from-port="2" to-layer="4181" to-port="0" />
		<edge from-layer="4180" from-port="0" to-layer="4181" to-port="1" />
		<edge from-layer="4181" from-port="2" to-layer="4183" to-port="0" />
		<edge from-layer="4182" from-port="0" to-layer="4183" to-port="1" />
		<edge from-layer="4183" from-port="2" to-layer="4185" to-port="0" />
		<edge from-layer="4184" from-port="0" to-layer="4185" to-port="1" />
		<edge from-layer="4185" from-port="2" to-layer="4188" to-port="0" />
		<edge from-layer="4186" from-port="0" to-layer="4187" to-port="0" />
		<edge from-layer="4187" from-port="1" to-layer="4188" to-port="1" />
		<edge from-layer="4188" from-port="2" to-layer="4189" to-port="1" />
		<edge from-layer="4189" from-port="2" to-layer="4190" to-port="0" />
		<edge from-layer="4190" from-port="1" to-layer="4200" to-port="0" />
		<edge from-layer="4191" from-port="0" to-layer="4192" to-port="0" />
		<edge from-layer="4192" from-port="1" to-layer="4193" to-port="1" />
		<edge from-layer="4193" from-port="2" to-layer="4195" to-port="0" />
		<edge from-layer="4194" from-port="0" to-layer="4195" to-port="1" />
		<edge from-layer="4195" from-port="2" to-layer="4197" to-port="0" />
		<edge from-layer="4196" from-port="0" to-layer="4197" to-port="1" />
		<edge from-layer="4197" from-port="2" to-layer="4199" to-port="0" />
		<edge from-layer="4198" from-port="0" to-layer="4199" to-port="1" />
		<edge from-layer="4199" from-port="2" to-layer="4200" to-port="1" />
		<edge from-layer="4200" from-port="2" to-layer="4202" to-port="0" />
		<edge from-layer="4201" from-port="0" to-layer="4202" to-port="1" />
		<edge from-layer="4202" from-port="2" to-layer="4204" to-port="0" />
		<edge from-layer="4203" from-port="0" to-layer="4204" to-port="1" />
		<edge from-layer="4204" from-port="2" to-layer="4206" to-port="0" />
		<edge from-layer="4205" from-port="0" to-layer="4206" to-port="1" />
		<edge from-layer="4206" from-port="2" to-layer="4209" to-port="0" />
		<edge from-layer="4207" from-port="0" to-layer="4208" to-port="0" />
		<edge from-layer="4208" from-port="1" to-layer="4209" to-port="1" />
		<edge from-layer="4209" from-port="2" to-layer="4210" to-port="1" />
		<edge from-layer="4210" from-port="2" to-layer="4211" to-port="0" />
		<edge from-layer="4211" from-port="2" to-layer="4213" to-port="0" />
		<edge from-layer="4211" from-port="2" to-layer="4263" to-port="1" />
		<edge from-layer="4212" from-port="0" to-layer="4213" to-port="1" />
		<edge from-layer="4213" from-port="2" to-layer="4216" to-port="0" />
		<edge from-layer="4214" from-port="0" to-layer="4215" to-port="0" />
		<edge from-layer="4215" from-port="1" to-layer="4216" to-port="1" />
		<edge from-layer="4216" from-port="2" to-layer="4219" to-port="0" />
		<edge from-layer="4217" from-port="0" to-layer="4218" to-port="0" />
		<edge from-layer="4218" from-port="1" to-layer="4219" to-port="1" />
		<edge from-layer="4219" from-port="2" to-layer="4222" to-port="0" />
		<edge from-layer="4220" from-port="0" to-layer="4221" to-port="0" />
		<edge from-layer="4221" from-port="1" to-layer="4222" to-port="1" />
		<edge from-layer="4222" from-port="2" to-layer="4224" to-port="0" />
		<edge from-layer="4223" from-port="0" to-layer="4224" to-port="1" />
		<edge from-layer="4224" from-port="2" to-layer="4226" to-port="0" />
		<edge from-layer="4225" from-port="0" to-layer="4226" to-port="1" />
		<edge from-layer="4226" from-port="2" to-layer="4228" to-port="0" />
		<edge from-layer="4227" from-port="0" to-layer="4228" to-port="1" />
		<edge from-layer="4228" from-port="2" to-layer="4241" to-port="0" />
		<edge from-layer="4229" from-port="0" to-layer="4230" to-port="0" />
		<edge from-layer="4230" from-port="1" to-layer="4231" to-port="1" />
		<edge from-layer="4231" from-port="2" to-layer="4233" to-port="0" />
		<edge from-layer="4232" from-port="0" to-layer="4233" to-port="1" />
		<edge from-layer="4233" from-port="2" to-layer="4235" to-port="0" />
		<edge from-layer="4234" from-port="0" to-layer="4235" to-port="1" />
		<edge from-layer="4235" from-port="2" to-layer="4237" to-port="0" />
		<edge from-layer="4236" from-port="0" to-layer="4237" to-port="1" />
		<edge from-layer="4237" from-port="2" to-layer="4240" to-port="0" />
		<edge from-layer="4238" from-port="0" to-layer="4239" to-port="0" />
		<edge from-layer="4239" from-port="1" to-layer="4240" to-port="1" />
		<edge from-layer="4240" from-port="2" to-layer="4241" to-port="1" />
		<edge from-layer="4241" from-port="2" to-layer="4242" to-port="0" />
		<edge from-layer="4242" from-port="1" to-layer="4252" to-port="0" />
		<edge from-layer="4243" from-port="0" to-layer="4244" to-port="0" />
		<edge from-layer="4244" from-port="1" to-layer="4245" to-port="1" />
		<edge from-layer="4245" from-port="2" to-layer="4247" to-port="0" />
		<edge from-layer="4246" from-port="0" to-layer="4247" to-port="1" />
		<edge from-layer="4247" from-port="2" to-layer="4249" to-port="0" />
		<edge from-layer="4248" from-port="0" to-layer="4249" to-port="1" />
		<edge from-layer="4249" from-port="2" to-layer="4251" to-port="0" />
		<edge from-layer="4250" from-port="0" to-layer="4251" to-port="1" />
		<edge from-layer="4251" from-port="2" to-layer="4252" to-port="1" />
		<edge from-layer="4252" from-port="2" to-layer="4254" to-port="0" />
		<edge from-layer="4253" from-port="0" to-layer="4254" to-port="1" />
		<edge from-layer="4254" from-port="2" to-layer="4256" to-port="0" />
		<edge from-layer="4255" from-port="0" to-layer="4256" to-port="1" />
		<edge from-layer="4256" from-port="2" to-layer="4258" to-port="0" />
		<edge from-layer="4257" from-port="0" to-layer="4258" to-port="1" />
		<edge from-layer="4258" from-port="2" to-layer="4261" to-port="0" />
		<edge from-layer="4259" from-port="0" to-layer="4260" to-port="0" />
		<edge from-layer="4260" from-port="1" to-layer="4261" to-port="1" />
		<edge from-layer="4261" from-port="2" to-layer="4262" to-port="1" />
		<edge from-layer="4262" from-port="2" to-layer="4263" to-port="0" />
		<edge from-layer="4263" from-port="2" to-layer="4265" to-port="0" />
		<edge from-layer="4263" from-port="2" to-layer="4307" to-port="1" />
		<edge from-layer="4264" from-port="0" to-layer="4265" to-port="1" />
		<edge from-layer="4265" from-port="2" to-layer="4268" to-port="0" />
		<edge from-layer="4266" from-port="0" to-layer="4267" to-port="0" />
		<edge from-layer="4267" from-port="1" to-layer="4268" to-port="1" />
		<edge from-layer="4268" from-port="2" to-layer="4271" to-port="0" />
		<edge from-layer="4269" from-port="0" to-layer="4270" to-port="0" />
		<edge from-layer="4270" from-port="1" to-layer="4271" to-port="1" />
		<edge from-layer="4271" from-port="2" to-layer="4274" to-port="0" />
		<edge from-layer="4272" from-port="0" to-layer="4273" to-port="0" />
		<edge from-layer="4273" from-port="1" to-layer="4274" to-port="1" />
		<edge from-layer="4274" from-port="2" to-layer="4275" to-port="1" />
		<edge from-layer="4275" from-port="2" to-layer="4279" to-port="0" />
		<edge from-layer="4275" from-port="2" to-layer="4290" to-port="0" />
		<edge from-layer="4275" from-port="2" to-layer="4300" to-port="0" />
		<edge from-layer="4276" from-port="0" to-layer="4290" to-port="1" />
		<edge from-layer="4277" from-port="0" to-layer="4288" to-port="0" />
		<edge from-layer="4278" from-port="0" to-layer="4288" to-port="1" />
		<edge from-layer="4279" from-port="1" to-layer="4282" to-port="0" />
		<edge from-layer="4280" from-port="0" to-layer="4282" to-port="1" />
		<edge from-layer="4281" from-port="0" to-layer="4282" to-port="2" />
		<edge from-layer="4282" from-port="3" to-layer="4284" to-port="0" />
		<edge from-layer="4283" from-port="0" to-layer="4284" to-port="1" />
		<edge from-layer="4284" from-port="2" to-layer="4286" to-port="0" />
		<edge from-layer="4285" from-port="0" to-layer="4286" to-port="1" />
		<edge from-layer="4286" from-port="2" to-layer="4294" to-port="2" />
		<edge from-layer="4286" from-port="2" to-layer="4288" to-port="2" />
		<edge from-layer="4286" from-port="2" to-layer="4297" to-port="0" />
		<edge from-layer="4287" from-port="0" to-layer="4288" to-port="3" />
		<edge from-layer="4288" from-port="4" to-layer="4290" to-port="2" />
		<edge from-layer="4289" from-port="0" to-layer="4290" to-port="3" />
		<edge from-layer="4290" from-port="4" to-layer="4302" to-port="0" />
		<edge from-layer="4291" from-port="0" to-layer="4294" to-port="0" />
		<edge from-layer="4292" from-port="0" to-layer="4294" to-port="1" />
		<edge from-layer="4292" from-port="0" to-layer="4298" to-port="1" />
		<edge from-layer="4293" from-port="0" to-layer="4294" to-port="3" />
		<edge from-layer="4293" from-port="0" to-layer="4298" to-port="3" />
		<edge from-layer="4294" from-port="4" to-layer="4300" to-port="1" />
		<edge from-layer="4295" from-port="0" to-layer="4298" to-port="0" />
		<edge from-layer="4296" from-port="0" to-layer="4297" to-port="1" />
		<edge from-layer="4297" from-port="2" to-layer="4298" to-port="2" />
		<edge from-layer="4298" from-port="4" to-layer="4300" to-port="2" />
		<edge from-layer="4299" from-port="0" to-layer="4300" to-port="3" />
		<edge from-layer="4300" from-port="4" to-layer="4301" to-port="0" />
		<edge from-layer="4301" from-port="1" to-layer="4302" to-port="1" />
		<edge from-layer="4302" from-port="2" to-layer="4305" to-port="0" />
		<edge from-layer="4303" from-port="0" to-layer="4304" to-port="0" />
		<edge from-layer="4304" from-port="1" to-layer="4305" to-port="1" />
		<edge from-layer="4305" from-port="2" to-layer="4306" to-port="1" />
		<edge from-layer="4306" from-port="2" to-layer="4307" to-port="0" />
		<edge from-layer="4307" from-port="2" to-layer="4309" to-port="0" />
		<edge from-layer="4308" from-port="0" to-layer="4309" to-port="1" />
		<edge from-layer="4309" from-port="2" to-layer="4311" to-port="0" />
		<edge from-layer="4310" from-port="0" to-layer="4311" to-port="1" />
		<edge from-layer="4311" from-port="2" to-layer="4314" to-port="0" />
		<edge from-layer="4312" from-port="0" to-layer="4313" to-port="0" />
		<edge from-layer="4313" from-port="1" to-layer="4314" to-port="1" />
		<edge from-layer="4314" from-port="2" to-layer="4317" to-port="0" />
		<edge from-layer="4315" from-port="0" to-layer="4316" to-port="0" />
		<edge from-layer="4316" from-port="1" to-layer="4317" to-port="1" />
		<edge from-layer="4317" from-port="2" to-layer="4318" to-port="0" />
		<edge from-layer="4318" from-port="2" to-layer="4320" to-port="0" />
		<edge from-layer="4318" from-port="2" to-layer="4323" to-port="0" />
		<edge from-layer="4319" from-port="0" to-layer="4320" to-port="1" />
		<edge from-layer="4320" from-port="2" to-layer="4322" to-port="0" />
		<edge from-layer="4321" from-port="0" to-layer="4322" to-port="1" />
		<edge from-layer="4322" from-port="2" to-layer="4324" to-port="0" />
		<edge from-layer="4323" from-port="1" to-layer="4324" to-port="1" />
		<edge from-layer="4324" from-port="2" to-layer="4327" to-port="0" />
		<edge from-layer="4325" from-port="0" to-layer="4326" to-port="0" />
		<edge from-layer="4326" from-port="1" to-layer="4327" to-port="1" />
		<edge from-layer="4327" from-port="2" to-layer="4330" to-port="0" />
		<edge from-layer="4328" from-port="0" to-layer="4329" to-port="0" />
		<edge from-layer="4329" from-port="1" to-layer="4330" to-port="1" />
		<edge from-layer="4330" from-port="2" to-layer="4331" to-port="0" />
		<edge from-layer="4331" from-port="1" to-layer="4334" to-port="0" />
		<edge from-layer="4332" from-port="0" to-layer="4333" to-port="0" />
		<edge from-layer="4333" from-port="1" to-layer="4334" to-port="1" />
		<edge from-layer="4334" from-port="2" to-layer="4337" to-port="0" />
		<edge from-layer="4335" from-port="0" to-layer="4336" to-port="0" />
		<edge from-layer="4336" from-port="1" to-layer="4337" to-port="1" />
		<edge from-layer="4337" from-port="2" to-layer="4338" to-port="0" />
	</edges>
	<rt_info>
		<MO_version value="2022.3.0-9052-9752fafe8eb-releases/2022/3" />
		<Runtime_version value="2022.3.0-9052-9752fafe8eb-releases/2022/3" />
		<conversion_parameters>
			<compress_to_fp16 value="True" />
			<input_model value="DIR\unet.onnx" />
		</conversion_parameters>
		<legacy_frontend value="False" />
	</rt_info>
</net>
